dqn_lander.pth (torch, 23097 bytes, 6 tensors)

layers.0.weight f4 [64, 8]
00000000: 1d58 8cbe 77eb c53d cb56 b1be 5d53 863e
00000010: b963 9cbd f957 13bf 2690 95be 0c16 223e
00000020: 9ce9 26be 1b00 743e 4795 c13e d7c5 6dbf
00000030: a3b8 90be 3b4a 0a3f 7305 b0bd 5951 3c3e
00000040: 7606 e6be 90a7 babe 5b96 56bd 010b e9bd
00000050: 8f3d 1dbf 2efc 91be b580 a63e 2327 933e
00000060: 3e2a b63d 2c13 60bc c184 843e 1a0d 82bd
00000070: 1561 52bf b4fb 17bf ddcc 4fbe f460 33bd
00000080: ce30 d4bc c755 57bb 3c12 0c40 0abe 9c3f
00000090: f618 e7bc 4adf 803d 3cb0 95be 5f07 27be
000000a0: 0589 5abe 924b cd3e 2bdb 06bf 1ced 283f
000000b0: ae5b 7e3e 8bd4 243f 4a7b d5be 405a 8ebe
000000c0: baa9 133e 1849 55bf 4c87 103f ca7b 45bf
000000d0: cec9 1bbe a398 92be 5f91 023d fe26 dabd
000000e0: 0ab1 a6be 3549 b4be 453e bc3d 13ac fbbe
000000f0: b0a3 5cbe 4567 2ebf ac81 31be 33df d43e
00000100: d37f d8bc 4d1d c43d b01c 543e cf0e ef3e
00000110: 0cbd 52bf d46b 173f 5dfe 5c3e a5fa afbe
00000120: 52af 883d 076a 3a3d 1bce 3a3e 2c7b eb3e
00000130: d062 2dbf ea36 b33e 60b3 4d3e bd0d ecbe
00000140: 31c4 18bf 110f fabe 0501 fdbe 6df5 cebe
00000150: 00c4 0c3f 8299 853e d3b5 a5be 2edf ee3b
00000160: 0640 303e 3fcc db3d 5b95 9e3e 14c0 1cbe
00000170: 8c81 85bf 98a5 5d3e f36e b83c 483f b3bd
00000180: fe0f f5bd 0f86 1fbf 757b c83e d1b0 64bf
00000190: bb0b 23be e175 03bf 7d09 0fbd e83f a23e
000001a0: be1d b7bd 17ad 073f d2c0 db3e 16dd 5cbf
000001b0: 6db8 8b3d 9622 283f 40be c0be 43d2 2e3e
000001c0: faf9 01be a606 94be 6e05 463e 33f2 4ebe
000001d0: c0d0 c03e 37f9 303f 2624 6c3e 6b7a 773e
000001e0: a42f 823e cee9 8fbf 9776 b33e 2d48 24bf
000001f0: 3a2a 1cbf adfe abbe 08f7 b3be 98c1 a33e
00000200: 5d12 5d3d 1ec0 9dbf 73ea c83e 098d 45bf
00000210: ba06 90bd 9535 43bd 6e1a 863e 59f2 843d
00000220: 1eaf f83d 1b5b 5bbf d269 fdbc eab5 27bf
00000230: 29c5 163f aecc 403e b0e7 acbe 0df2 1cbe
00000240: 9dcd 8e3e 075c d73e ed23 0abf 531f 35be
00000250: 7a54 7f3b c5a4 73be e8d8 b93e 7c79 573e
00000260: ffe6 183d 816f 273f 60ba 99be 1fc0 07bf
00000270: c648 873e d7dd b23d 28a6 d3be ddb2 2bbe
00000280: cd6b 83bd a068 b73b afe2 8e3d 4d35 8e3e
00000290: 3a74 d93d 7bae 583f d16a a63e af3d 0cbe
000002a0: 6e90 54be dbcd ef3e 9ffe 4e3f 5e87 3bbf
000002b0: 8d9d d33d a111 4f3e e0a5 233e bb7b 833e
000002c0: c44d fcbe 84c4 3cbf ba5b 2a3d dd7b 2fbf
000002d0: 29b2 10be cb9f aebe 52f3 debe 1323 5b3e
000002e0: b8aa bdbd 6ba5 28bd 3874 11bf a79d f8bd
000002f0: d424 3bbf 358b 1ebf 275f 66be 14b7 d53d
00000300: b87b e5bc 0eb4 2c3f 514a 78be 635a de3f
00000310: b43d 89bd ea4b 813e 2ee9 78be 2e97 7abe
00000320: e18e c2be c661 63bf aa4c b03e 9cab 24bf
00000330: f9ee ce3d c643 f0be 5d7d ed3d ff18 1e3e
00000340: 7202 873e 4348 32bf 02ac ca3e 2694 56bd
00000350: 25ac 15bf 607d 3d3e 482b 803e 7f1d bd3e
00000360: 152d afbe c64d 16bf abf2 8e3e fbd5 cabe
00000370: 818e 2b3f b5b0 ab3e 98ff cdbd ddbc 153e
00000380: 0eb9 d0be a97b 4a3d a8a9 b8be 6b11 f33e
00000390: 33bd 793f feff 7b3e 77cd e5be 6d12 b0bd
000003a0: 85ce aebe b04a 58bc 2b1e f3bd 286e 423e
000003b0: 0c7c 36bd 4034 553f b374 ba3e 6161 e8be
000003c0: 62dc e2bd 7963 4cbf 5ce1 173e fe05 2dbf
000003d0: a0e0 acbd 3046 5fbe 20b9 7abc 5b95 813d
000003e0: 2e38 a63e 89b9 30bf a092 1e3f 2c78 cebe
000003f0: ba0c 6dbe f814 d6be 6e8b fdbd a641 11be
-0.27410975 0.09664052 -0.3463653 0.26235476 -0.07636208 -0.5755611 -0.2921154 0.15828723
-0.16300052 0.23828165 0.37809202 -0.92880005 -0.28265867 0.54019517 -0.08594789 0.18390407
-0.44926804 -0.36455965 -0.052389484 -0.11379052 -0.61422056 -0.2851271 0.3252007 0.28740796
0.08894776 -0.013676446 0.25882533 -0.06350155 -0.82179385 -0.59368443 -0.20292993 -0.043793634
-0.025902178 -0.0032857524 2.188613 1.2245495 -0.028210144 0.06292589 -0.2923602 -0.16311406
-0.21341331 0.40096718 -0.52678174 0.659868 0.2483966 0.64386815 -0.41695625 -0.2780323
0.14420214 -0.8331466 0.56456447 -0.7714201 -0.15213701 -0.28632078 0.031876918 -0.106519684
-0.32556945 -0.35212103 0.091915645 -0.4915472 -0.21546817 -0.68126327 -0.17334622 0.41576537
-0.026428139 0.09575901 0.20714068 0.46690986 -0.8231971 0.5914891 0.21581407 -0.34370914
0.06674065 0.04551127 0.18242685 0.4599241 -0.677289 0.35002834 0.20087957 -0.4610423
-0.59674364 -0.4883962 -0.4941484 -0.4042162 0.5498657 0.2609368 -0.32365283 0.0072897887
0.17211923 0.10732316 0.30973324 -0.15307647 -1.043016 0.216452 0.022513842 -0.08752304
-0.11965941 -0.6231393 0.3915669 -0.893323 -0.15922444 -0.51351744 -0.034921158 0.31689382
-0.0894122 0.5299849 0.42920548 -0.8627485 0.06822286 0.65677774 -0.3764515 0.17072396
-0.12693015 -0.28911322 0.19338009 -0.20209579 0.37659264 0.6913027 0.23060665 0.24167792
0.25426972 -1.1243227 0.35051414 -0.6417263 -0.6100193 -0.3359274 -0.35149407 0.31983638
0.05397259 -1.2324255 0.3924137 -0.7716833 -0.07032533 -0.04765852 0.2619204 0.06491537
0.12142776 -0.8568589 -0.030934248 -0.65511954 0.5889459 0.18828079 -0.33770514 -0.1532671
0.27891245 0.420624 -0.5396107 -0.1768773 0.0038960264 -0.23793323 0.362983 0.21042436
0.03732967 0.65404516 -0.30025005 -0.5302753 0.2642271 0.08733719 -0.41337705 -0.1676745
-0.06417046 0.005597189 0.0697683 0.2777504 0.106178716 0.84641236 0.3250337 -0.13695405
-0.2075822 0.46836743 0.8085727 -0.7325343 0.10332785 0.20221569 0.15981245 0.25680336
-0.4927808 -0.7373736 0.041591384 -0.68548375 -0.14130463 -0.34106287 -0.43545014 0.21400099
-0.09261078 -0.04117338 -0.5681796 -0.12139445 -0.7310307 -0.61931163 -0.22497235 0.1043531
-0.028013095 0.6746224 -0.242471 1.7371334 -0.06701222 0.2525323 -0.24307701 -0.24471733
-0.37999633 -0.88821065 0.3443349 -0.64324355 0.10104174 -0.46926707 0.11596177 0.15439223
0.26369053 -0.6964151 0.39584357 -0.05238738 -0.58465797 0.18504858 0.2503302 0.36936566
-0.34214082 -0.5871242 0.27919516 -0.3961638 0.6701432 0.33533254 -0.10058516 0.14622827
-0.40766186 0.049434338 -0.36066937 0.47474226 0.9755432 0.24609372 -0.4488332 -0.085972644
-0.34141937 -0.013201401 -0.118709885 0.18987334 -0.044551894 0.8328285 0.3641716 -0.45386794
-0.11077191 -0.79839283 0.14832062 -0.6758727 -0.08441281 -0.21804118 -0.015302926 0.063273154
0.32464737 -0.69033104 0.6194248 -0.4032606 -0.23149386 -0.41812873 -0.1238011 -0.14185199

layers.0.bias f4 [64]
00000000: cc36 8cbe 7400 b43e b960 393d f772 37be
00000010: a3be 9b3c 460f ad3d 73ea e83d a1de bdbd
00000020: 0ede b1be 68c8 53be cc32 04be c905 ad3e
00000030: f0ec d93c 4d33 3e3f 38dc ebbd 56aa d23d
00000040: ee3b 653e 5978 00be df42 003f 918f 933d
00000050: cd5a a23e ff77 2e3f 2d4b 393e 35e9 5fbe
00000060: 7a97 163e c49e 373d 441a a8bd 1c6f 343e
00000070: 2480 bc3e 4e23 433e eff1 053e 12a9 4b3e
00000080: fb3b 0bbe 8203 03be 957e d23d 1a32 86bd
00000090: 4d3c 1ebe 207e 643e 397b 3bbe a51e 2d3d
000000a0: dc64 cb3e 5e25 183c 8452 3ebe 4cac 123e
000000b0: f5fe 4cbd fce7 9f3c 9488 5d3e f75e 9e3e
000000c0: 57f9 363c 508b a23e 64a6 d93d 89ba c53e
000000d0: 227a eb3e 1882 d83e d12f 3b3f c675 ac3d
000000e0: f06b 173d 5452 eabd 5e8d e9be fd71 483f
000000f0: bdca 203e f2ad c13d 43d8 973e 1e3f 713e
-0.27385557 0.35156596 0.045258258 -0.1791495 0.019011801 0.08450179 0.11372843 -0.09270979
-0.34739727 -0.20681918 -0.12910002 0.33793476 0.026602238 0.7429703 -0.11516613 0.10286395
0.22386143 -0.12545909 0.5010204 0.072051175 0.317099 0.6815185 0.18095084 -0.21866305
0.14706221 0.044829145 -0.08208135 0.1762051 0.36816514 0.19056436 0.13080572 0.19888714
-0.135971 -0.12794307 0.1027805 -0.06552525 -0.1545269 0.22313738 -0.18308724 0.042265553
0.39725387 0.009286253 -0.18586165 0.14323539 -0.050047833 0.019519798 0.21634132 0.30931827
0.011167846 0.31746912 0.106274396 0.38618878 0.45991617 0.42286754 0.7311984 0.08420901
0.03696817 -0.11441484 -0.45615667 0.7829893 0.15702339 0.094570056 0.29657182 0.23559234

layers.2.weight f4 [64, 64]
00000000: 0a2a f53e fb71 153d 8123 c53e 94b9 1e3f
00000010: 4192 24bf 56ac dc3e bc84 df3e 0c06 db3e
00000020: 7287 463f 2cd0 0c3f ae74 8e3e 4e84 a93e
00000030: 655d ce3e 0158 1dbe 9d21 8f3e 8876 ed3e
00000040: eceb 4c3e e15d 833e f3ef ffbc 5487 3bbe
00000050: 24be 413e c068 f2bd 16cc 823e e7e3 073c
00000060: 01df 0f3f 0d0d ac3e 186f 313e 62d4 883e
00000070: aa31 a33e d6b4 883d f4cb 843e 086f 2f3e
00000080: 0289 de3e c289 bf3e 2035 c93d 8e7e b53e
00000090: 532d 9a3e c1d0 babe 235b 8c3e dc0a df3e
000000a0: 9caf 9e3e 64c4 16be 5d4b ca3e 4432 0bbf
000000b0: 51d1 6d3e 0d59 07c0 46dd 033f 341f 2f3e
000000c0: da7e c23e d139 aa3e 672e 0c3f 1992 ad3e
000000d0: e0f2 3e3b e5f6 d03e 7bb1 f83c 403d e53e
000000e0: 6f2a 053f 6d3d 783e b4f1 cc3d b4a2 8abd
000000f0: c958 303e e94b 2b3e 8f9a c63e 37d1 6d3e
00000100: 7e8a 953e 6dd5 c03d 9362 433e 4d91 ec3e
00000110: 4d96 ecbe e8c5 0d3f f00c bc3e 9878 f63d
00000120: 6de3 0b3f 9ffb e53e 2276 8e3e 914d 9b3e
00000130: 2cfb 843e 1906 11be a1fe 8f3e 1978 9e3e
00000140: 8559 2f3e 7843 7f3e 461a 193e 2257 fcbd
00000150: 9385 173e e75a 113e c27f 783e 3818 0abe
00000160: d9d0 123f e59c c33d e661 0d3e 5753 933d
00000170: b857 bc3e d713 18bd 164d 563e 151b 9e3e
00000180: 2e78 933e 33e9 673e 6a8f dd3e 1178 963e
00000190: eed9 e53d 3b36 bbbe b2c7 033f 3835 903e
000001a0: 9986 633e 1140 dfbd 192d a43e 9792 a6be
000001b0: 2ff1 a93e 6f6a ffbf 8079 8a3e 9f0e bf3d
000001c0: e203 ee3e 2dd8 653e 57b9 d83e d600 b33e
000001d0: bec8 4abb 1d8f 8a3e e6dd b33d e12b f53e
000001e0: eea5 d53e 0dbd ea3e 2ea8 12be c492 fbbd
000001f0: a3c1 ec3c 3d80 f43c ae3c b13e 0a56 a63e
00000200: e6ee 6dbf 3a10 d33e cc70 aebe b61d 60bf
00000210: 1227 ab3e b351 9bbe 3d70 e1be e634 c7be
00000220: 0186 45bf 50ff 18bf 3ce2 a0be 6edd 90be
00000230: 32c1 2ebf ee70 263f beec 89be f00c d1be
00000240: 0344 5abe a6f7 d1be 9eb8 973e 98b7 093f
00000250: 404f afbe 2844 e83e a737 0dbf 00d6 083f
00000260: 12aa 31bf a27c 34bf 2b09 bebe 2df2 2a3e
00000270: dcec 2ebd 430d 50be cb09 06bf e3cc 66be
00000280: 2fad 38bf 44ba a8be 7167 82be 251d 13bf
00000290: 5bf1 48bf 0344 013f d537 8ebe c216 39bf
000002a0: ae9b 493e a84a c93e fc17 56be 71f2 6a3f
000002b0: 2a56 86be 371c 1440 fd3e f5be df39 39be
000002c0: 7550 1cbf 3a85 d0be a3e4 20bf cd1b fdbe
000002d0: ac07 783e 46a2 4abe ca88 9f3e 3b05 c6be
000002e0: 6882 aabe 1668 5ebf 6bed 253e 7d15 f03e
000002f0: 82a2 9ebd 8888 cbbe f722 69be a948 a0be
00000300: 9e12 013f d001 4d3e 75b9 dc3d e4e3 ee3e
00000310: d756 b1bf 3428 8f3d 7e63 c53e dd82 f83e
00000320: 90ac 3dbb 1fae a03e 712c 9c3e 455f ea3e
00000330: 3ed7 023f cf39 af3e 5959 913e 080b ac3e
00000340: ee36 ed3d 764b eb3c 5029 72bc c6cf efbd
00000350: 2f6e d83e 1bed 093e 38f5 0f3f 696e 1f3f
00000360: a062 a23d 511d 2c3e b670 d43d d3c6 2b3e
00000370: 52ae 643d 1989 803e 1be6 ab3e 4199 ba3e
00000380: ca4e 043e d8ac ea3e 777b 1e3e b33e e33e
00000390: 2e97 c73e e25d 9dbe d01f aa3b 194c 873e
000003a0: b1b9 123f 6a71 a93e 2aca ee3e 9096 293e
000003b0: a09a b63e ca79 e4bf 333d 2a3f 7bd7 83bc
000003c0: 891c ce3e b177 ea3e ffc5 433f 349e 943e
000003d0: 27be e4bd e109 c03e 2dbc 193b 8a50 9e3e
000003e0: f2e7 383f 6ee6 e73e 16f1 1f3e 199a afbd
000003f0: 4603 1f3e 950b b43e da28 1b3f 098b 42be
0.47883636 0.036485653 0.3850365 0.6200192 -0.64285666 0.43100232 0.43655956 0.4277805
0.77550423 0.55005145 0.27823395 0.33108753 0.4030563 -0.15365602 0.27955332 0.46379495
0.20011872 0.2565756 -0.031242346 -0.18313342 0.18920189 -0.11836386 0.2554633 0.008294082
0.5619965 0.33603707 0.17327535 0.26724535 0.31873828 0.06675117 0.25936854 0.17132199
0.43463904 0.37409788 0.09824586 0.35448116 0.30112705 -0.36487392 0.27413282 0.43562973
0.30993354 -0.14723355 0.39510623 -0.54373574 0.23224379 -2.1148102 0.5150951 0.17101747
0.37987405 0.33247235 0.54758304 0.33900526 0.0029136464 0.40813366 0.030358067 0.44773293
0.52017874 0.24242182 0.10007039 -0.067693144 0.17221369 0.16728176 0.38789794 0.2322434
0.29207224 0.09415708 0.19080572 0.46204606 -0.4620842 0.55380106 0.3672862 0.1203472
0.546439 0.44918534 0.27824503 0.30332616 0.2597288 -0.14162482 0.28123954 0.30951002
0.17123993 0.24928081 0.14951429 -0.12321307 0.14797048 0.14194833 0.24267486 -0.13485801
0.57349926 0.0955141 0.13806877 0.0719363 0.36785674 -0.037128296 0.20927843 0.30880037
0.28802627 0.22647552 0.4327348 0.29388478 0.112232074 -0.36564812 0.51476586 0.28165603
0.22219314 -0.109008916 0.32065657 -0.32533714 0.3319182 -1.9954356 0.27045822 0.093289606
0.46487337 0.22445746 0.42328903 0.34961575 -0.0030942406 0.27062312 0.08782558 0.4788504
0.41728157 0.4584736 -0.14321968 -0.12283853 0.028900927 0.029846305 0.34616607 0.32487518
-0.92942655 0.41223317 -0.34070432 -0.87545335 0.33428246 -0.3033577 -0.44030944 -0.38907546
-0.771576 -0.59764576 -0.31422603 -0.28293937 -0.6826354 0.6501607 -0.26938432 -0.40830183
-0.21315007 -0.41009253 0.2963304 0.53795767 -0.3424015 0.453645 -0.55163044 0.5345154
-0.6940013 -0.70502675 -0.3711637 0.16693945 -0.042706355 -0.20317559 -0.5235869 -0.22539096
-0.7213926 -0.3295461 -0.25469545 -0.57466346 -0.7849328 0.504944 -0.2777697 -0.7230035
0.19688293 0.3931477 -0.20907587 0.91776186 -0.26237613 2.314222 -0.4789962 -0.18088482
-0.6106027 -0.40726644 -0.6284887 -0.49435273 0.24221677 -0.19788465 0.3115905 -0.38675866
-0.33302617 -0.8687757 0.16203849 0.46891394 -0.0774584 -0.39752603 -0.22767244 -0.31305435
0.5041903 0.20020223 0.107775606 0.46658242 -1.3854626 0.0699009 0.3855247 0.4853734
-0.0028941967 0.31382844 0.30502656 0.4577581 0.51109684 0.34223792 0.2838848 0.33602166
0.11582743 0.028722506 -0.0147803575 -0.117095515 0.42271563 0.13469355 0.5623355 0.6227785
0.079289675 0.16808058 0.103730604 0.16775064 0.055830307 0.25104597 0.33573994 0.36445048
0.1292068 0.45834994 0.15476786 0.44383773 0.38982528 -0.3073569 0.0051917806 0.26425245
0.5731459 0.3309434 0.46638614 0.16561341 0.35664845 -1.7849667 0.6649963 -0.01609396
0.40256146 0.45794442 0.76473993 0.2902695 -0.11169081 0.37507537 0.0023458109 0.3092082
0.7222892 0.4529299 0.1561931 -0.08574314 0.15528592 0.35165086 0.6060921 -0.1899835

layers.2.bias f4 [64]
00000000: 1c6d 63bd 44cd 90bd 13ff 023f 2a30 413e
00000010: 8186 f93c 0ddf c13d afc9 a6bd bc19 993d
00000020: 1d1d 61bd de39 b23c 34ba ed3e e6c6 0b3e
00000030: 65ac 0e3e 9ac7 d53d a9c9 253e 92ce c43c
00000040: a2c1 a03e 6c19 a33d b089 dabc 9ba0 f0bd
00000050: e28a dbbd 1ff9 fd3d 92be 5fbd e09b 85bd
00000060: 39b9 713d 862b e5bd 7e82 813d 7dbd 90bb
00000070: f0a0 a7bc b9dc b13d 8d73 1e3d 2b04 573e
00000080: 2558 68bd ab55 5c3d c51d 883d 54f1 7d3d
00000090: 372a af3e 1fb6 62bc 468e a73e 52cc fa3d
000000a0: 6d72 81bd 8aa1 69bd 8759 1d3c 8fb2 993d
000000b0: ea48 923e f304 a2bd 7b2b 5abd 007b 323c
000000c0: e770 40bd 5f92 963e be43 313e 50cd 3cbd
000000d0: cbda d8bd 1d82 8cbe 8056 cb3e b504 ba3d
000000e0: 3419 383d 6319 b23d 33e2 c13c fe74 093e
000000f0: d694 b53e d34a 6d3e a871 3b3d 4aa1 903c
-0.055523977 -0.07070401 0.5117046 0.1886603 0.030459644 0.09466372 -0.08143937 0.074756116
-0.054959405 0.021756109 0.46431124 0.13650092 0.13932951 0.104384616 0.16190208 0.024024282
0.3139773 0.07963833 -0.026676983 -0.11749383 -0.10719849 0.12401032 -0.0546251 -0.065238714
0.059014533 -0.11189942 0.063237175 -0.00441712 -0.020462483 0.08684678 0.038684417 0.20997684
-0.056724686 0.053792637 0.06646303 0.061997727 0.34211895 -0.013837366 0.32725734 0.12246002
-0.06320653 -0.05703882 0.0096038645 0.075047605 0.28571254 -0.079111 -0.053264122 0.010893583
-0.046982672 0.29408547 0.17310998 -0.04609424 -0.105886064 -0.2744302 0.39714432 0.09082929
0.04494591 0.086962484 0.02366743 0.13423535 0.35465115 0.23173074 0.045762688 0.017655034

layers.4.weight f4 [4, 64]
00000000: bde4 38bf 39ff 0abf acb1 8a3f f60b c2be
00000010: 2e3a 7fbe 7c59 87be a377 163f 216c cebe
00000020: 30a9 00be 7fd1 61be de43 8c3f b69f f3be
00000030: 9f4f 48be a870 d9be 8787 10bf b93d 19bf
00000040: c99c 6fbd 1b7c abbe 6ca5 b3be dc22 983d
00000050: b6b8 64bf bb6f e1be 2c64 ecbd 373d 58bf
00000060: 2efa e4be 4410 d6be c9d3 eabe 7206 d3be
00000070: a944 ccbe 269c ffbe 1c1b 03bf 0611 2540
00000080: 6fb2 b6be a787 22bf 5f77 bfbe a07c 06bf
00000090: 675f 653f f706 c1be 6333 303f b269 9abe
000000a0: 1e60 4bbf 26e1 f2be 720a 2ebf 3052 bcbe
000000b0: 3597 413f cfc2 40bf d900 72be 6f27 cf3d
000000c0: 7d17 1dbf 1749 a23f 7514 1ebf a65f d93d
000000d0: 2b28 ca3c 69ad 3ebf 6882 563f c2ee c1be
000000e0: 4b4f b9be 622c a9be b865 e1be 306b 81be
000000f0: 8b6a 113f 84cf f0bd feb2 31bf c104 b3be
00000100: 20d7 f2be a4d2 05bf d492 5c3f d731 0fbf
00000110: fb3e b13e adf9 0cbf e065 b1bd 6539 a8be
00000120: b3ee a73b 15f8 e3bf c990 793f f722 463e
00000130: 89bc 3ebf e1c7 89be 9647 f1be 1525 c1be
00000140: 4191 e0bd e6ab acbe 4b64 a1be 3464 89bc
00000150: ebdc a7be a10b f3be 7e37 913e 1091 d4be
00000160: f9ac aebe 5263 edbe 4e16 ddbe 1bd4 0cbf
00000170: df14 f2bd 1415 a5be babd fbbe 3011 3e40
00000180: 5a28 0dbe 859a cbbe 2dfa 1abf 0c88 00bf
00000190: 4b04 a13f 132b 2dbf ceac a83f 659b 04bf
000001a0: 5824 4abe 4b4b 83be 8a42 abbe bb97 0fbf
000001b0: aec4 7f3f 1771 cdbe b0fa 0bbf 363c df3a
000001c0: 8315 75be 064e 9f3f c4b7 20be 5459 36bd
000001d0: d0c1 a03b 1074 1cbf 8acb 563f f8da f1be
000001e0: 9309 28bf b711 2fbf 44c1 71be c579 0cbf
000001f0: 585f 033f 0711 1fbf 5642 10bf cec3 58bf
00000200: 87da f2be 204c f3be 1d51 ad3f 66f2 28bd
00000210: e1bd 51bf 49a0 11bf 4aa3 e7be 8305 e0be
00000220: 0c2a d73d 70fc 743f 1ee2 943f 227e 67bf
00000230: 1d1e 47be 14d7 07bf 06ca 84bf c4fc f8be
00000240: 552f 663f d938 1bbf 4340 29bf b091 613d
00000250: c558 12bf 7205 e6be 114b a1bf 2f98 b5be
00000260: 4352 24bf 145f 1cbf 1e6e f0be e50c d4be
00000270: 1416 52bf f1b7 ebbe e526 cebe 0d4a 5a3f
00000280: 4c32 61bf 5539 12bf c4f2 85bd 0258 e2be
00000290: 153a cd3d c045 4dbe b9fe 863e f6e9 d4be
000002a0: 19e3 2fbf 1553 25bf b5c9 0bbf 3982 23be
000002b0: 9dad a63f 7f4c 0dbf fed7 00bf 9890 34bd
000002c0: 8ff9 39bf 61cd 973f aa65 c6bf 0869 9fbd
000002d0: 7b0b c4bd fd76 fbbd dfbe 613f f083 c8be
000002e0: 93dc a0be b479 a1bd d284 43bf 2d3b 6a3e
000002f0: 3c3f 6f3e f579 133f cb57 00bf 5765 cbbe
00000300: 23ae 99be 9ea2 45be 1503 393f 7dbf 26bf
00000310: 43b1 d2be a0ab efbe 6f22 9b3f b6fd 1cbf
00000320: 5eaf 9c3c dd21 a53e 443f 493f 78b2 bfbe
00000330: edf4 fabe ee0e 11bf 35db ce3d 1a10 08bf
00000340: be8d 38be 71e5 aabe 0d36 e0be 87a6 02bd
00000350: 7727 eabe 6488 09bf acf8 8dbe f543 20bf
00000360: e8ba 88be 3bc4 8dbe 40ad 93be 0dca f2be
00000370: 6666 edbe 6bdb b6be a909 07bf afcb 2b40
00000380: faab b4be eb12 edbe 24ff d7be 6721 b9be
00000390: ebdc 7e3f 0a35 abbe f2c2 843f 3778 14bf
000003a0: 1b80 97be 4bdf 04bf 0a31 c0be e665 ebbe
000003b0: c47b c4be d789 bfbe 56cb e2be 2825 b13d
000003c0: 7185 aebe a0b0 123f 0ae8 a43e 9033 e2bd
000003d0: 6637 e83c 2a5c 86be b023 823f 5ae5 12bf
000003e0: eb91 02bf 3801 d4be 1ed8 22be 6f04 a4be
000003f0: e390 bb3f f15b 09be 1244 e1be 7e0e 6dbe
-0.72224027 -0.5429569 1.0835471 -0.3789975 -0.24924538 -0.2643546 0.587763 -0.4031687
-0.1256454 -0.22052573 1.0958211 -0.47582787 -0.19561623 -0.42468762 -0.564568 -0.59859806
-0.05849913 -0.33493122 -0.35087144 0.07428524 -0.89344347 -0.44030556 -0.11542544 -0.84468406
-0.44722122 -0.41809285 -0.45864704 -0.41215855 -0.39896134 -0.4992382 -0.5121324 2.579164
-0.3568301 -0.6348824 -0.3739576 -0.5253391 0.895987 -0.37700626 0.6882841 -0.30158764
-0.7944354 -0.474374 -0.6798469 -0.36781454 0.7562135 -0.75297254 -0.23633136 0.10114943
-0.61363965 1.2678555 -0.61749965 0.106139466 0.024677357 -0.7448335 0.83792734 -0.3787747
-0.36193308 -0.33041674 -0.44022918 -0.2527709 0.56803197 -0.117583305 -0.69413745 -0.34964564
-0.47429752 -0.5227454 0.8616154 -0.55935425 0.34618363 -0.55068475 -0.08662009 -0.3285629
0.0051248907 -1.7810084 0.9748655 0.19349276 -0.7450643 -0.26910308 -0.47124928 -0.37723604
-0.10965205 -0.33724898 -0.3152183 -0.016771413 -0.32785735 -0.4746981 0.2836265 -0.41516924
-0.34116343 -0.46364838 -0.4318108 -0.5501115 -0.11820387 -0.32242644 -0.49168187 2.969799
-0.13784924 -0.39766327 -0.6053799 -0.5020759 1.2579435 -0.6764385 1.3177736 -0.51799613
-0.19740427 -0.2564338 -0.33449203 -0.560909 0.99909484 -0.40125343 -0.54679394 0.0017031494
-0.23933987 1.2445686 -0.15695101 -0.044518784 0.0049059168 -0.611146 0.83904326 -0.47237372
-0.6563961 -0.68386406 -0.23608881 -0.54873306 0.5131736 -0.62135357 -0.5635122 -0.84673774
-0.47432348 -0.47519016 1.3540379 -0.041246794 -0.8193036 -0.568852 -0.45241767 -0.43754205
0.10506067 0.9569769 1.1631505 -0.9042684 -0.19445081 -0.5306256 -1.0374153 -0.48630345
0.8991597 -0.6063362 -0.6611368 0.05507058 -0.571667 -0.4492603 -1.2601033 -0.3546767
-0.6418802 -0.6108258 -0.46959013 -0.41416088 -0.8206494 -0.46038774 -0.4026405 0.8526924
-0.8796737 -0.5711873 -0.065404445 -0.4420777 0.10020844 -0.20046139 0.26366213 -0.41584748
-0.687059 -0.645799 -0.54604656 -0.15967645 1.3021733 -0.5519485 -0.5032958 -0.044083208
-0.7264642 1.1859552 -1.5499775 -0.07783705 -0.09572502 -0.122785546 0.8818187 -0.3916316
-0.31418285 -0.07884541 -0.7637454 0.22874136 0.23363966 0.57607967 -0.5013396 -0.39725754
-0.30015668 -0.19300315 0.7227033 -0.6513594 -0.41150865 -0.46810627 1.2119883 -0.6132463
0.01912659 0.32252398 0.7861216 -0.37440848 -0.4901499 -0.56663406 0.10100404 -0.5314957
-0.1802282 -0.33378175 -0.43791237 -0.031897094 -0.45733234 -0.5372374 -0.27728784 -0.62603694
-0.26705098 -0.27688774 -0.28843117 -0.47419778 -0.46367186 -0.35714278 -0.52749115 2.6843069
-0.35287458 -0.46303496 -0.42186844 -0.36158296 0.99555844 -0.33438903 1.0371993 -0.57995933
-0.29589924 -0.5190322 -0.37537414 -0.4597618 -0.38375676 -0.3740985 -0.44295758 0.08649665
-0.34086183 0.5730076 0.32208282 -0.11044991 0.028346729 -0.2624219 1.0167141 -0.5738121
-0.51003903 -0.4140718 -0.15902755 -0.32034633 1.4653591 -0.13413979 -0.43997246 -0.2315006

layers.4.bias f4 [4]
00000000: d4ea 3cbd ca4f 353d 0e0e 933e f5a8 05be
-0.046122387 0.044265546 0.2872166 -0.13052733
