dqn_lander_run3.pth (torch, 75893 bytes, 6 tensors)

layers.0.weight f4 [128, 8]
00000000: d77d dcbe c2c8 c0bf e74f 593c 7ce3 81bf
00000010: 883e 0dbf 8545 0abd 95ec a23c 47be 563e
00000020: 68ac 16be b318 143d 25bf 2bbe 8ea4 1c3e
00000030: 8dc9 983c 74cf 483f 0275 9b3e baa2 6fbd
00000040: a965 f53d a206 6f3e a8dc 583e e01e dfbe
00000050: 1008 92be 59d5 463f 97fc ca3d e83d b7be
00000060: 346b c5bd 5aea 03bf 1a2c abbf c232 833e
00000070: e499 9a3f 6648 763e 7c5f 953d f8ac b93e
00000080: 26f5 21bd 1015 d33e 7bb4 1dbe 1e16 f23e
00000090: 723c 8f3f aa82 6fbe d8f1 fbbe 25d8 eebe
000000a0: 2c4f 2d3d fdd4 4fc0 1543 84be f5f5 23bf
000000b0: a0ab 963e bee4 a7be 1629 a63b b87f 873c
000000c0: da81 433e c34a 153e 1f14 603e 9324 753e
000000d0: fc13 0ebf 8b61 1dbf 5eb3 9ebe a8e2 193f
000000e0: 7c99 b93e 22f2 0ebe 1808 f53e b151 87be
000000f0: 5ea6 a43d 1a33 10be 84c9 183e 0576 f93e
00000100: 6d2b 91bd 1a22 2abe dedf 8bbe 5aa8 20bf
00000110: 7ece a23e 517c b13e 7b04 6e3e 8ea4 f03e
00000120: 3b4d a93e b693 f7bd 0275 69bf fc87 8bbe
00000130: 51b4 babf 2241 0abe fc04 bd3d a92e 0a3e
00000140: ea34 103f cdc3 933d 321f 1bc0 f381 b9bd
00000150: 120a 833e 8b2d 53bd d808 0f3e 5bef 02bc
00000160: 8f8c 473f 4f84 e4bf 68c2 fa3d f16d 72bf
00000170: a323 a0be 314e 69bf 2926 8bbe 2f5b 703e
00000180: 6fb3 4abe e39c 993e 13e5 0cbf 7443 bc3e
00000190: d706 243f 9524 083f a8af 4ebf d3e8 01bf
000001a0: 71e2 c83e 888d 45c0 af62 09bf e520 2cbf
000001b0: 02c0 f13e 60ea 54bf 2883 8b3e 98eb 823d
000001c0: ee8e 623f 062c 81bf 65d5 d53e c14a 92be
000001d0: f259 ce3c e3ed 83be 593c b13d d157 653e
000001e0: 2a17 163e 4a32 adbd b057 dd3e b073 90be
000001f0: d69e 9ebe 7030 153f 691f 62be d4a0 59bf
00000200: eeee 783e d53c b6be f397 27bd 0b04 3dbf
00000210: c37c a63f 5c10 fb3d 8302 69be 54f8 f53c
00000220: ddc3 a3be 5c4f 2bbf c961 44bf b71d e7bd
00000230: 0ef4 7a3f bee2 69bd 304e d73e 592a 84be
00000240: ac0f 6e3e d4f2 92be 0897 c0be 084a ad3d
00000250: 3c37 a63f e3b4 863d 3e5f d0bd df22 833d
00000260: 0584 3b3e aded 94bc 3c67 54be 15af 893e
00000270: 0a6b 56be 46c4 823c 95e2 dbbd 52bc c0bd
00000280: 09ca 3bbe fe1e 11bd 33b1 adbf 0864 26bf
00000290: de04 d73f 6588 a6bd 9d0d 6bbe 749b bd3c
000002a0: e3c1 e23e 2564 b8bd abc3 4abe 739c 43bf
000002b0: a216 523f 2c5d 4f3e 3335 3cbf cd52 19be
000002c0: ac48 f03e 24dc 0ec0 1498 90bf 95dd d5bf
000002d0: fdae a1be 6e5e 9cbe 793e c23d 655d 8c3d
000002e0: e30c 46bd 5a59 e7be 4fb0 81bf 7db9 ab3f
000002f0: d727 273f 210c 6b3e c267 2bbe b661 e43e
00000300: 6bc9 a9bd da15 323e 1b36 7fbf 38d9 24bf
00000310: faa9 88be edb8 19bd f59f bd3d 17a1 c13d
00000320: 49cb 073f 81a3 50be d328 bf3e e157 b9be
00000330: c120 e1bc ea21 49bf c9ba b4be 0bec 883e
00000340: bd5d eebe 870e f4bc c4f5 51be cc2b 453f
00000350: 62c1 d8be a5f2 923e c5c8 a03e aaf6 a03e
00000360: 8a27 29be cb58 99bf 73b6 89bf 7d98 96be
00000370: 9175 043f b088 c6be 0fdc a83e 8b53 0c3e
00000380: e375 633f 4fcf 47bf cac7 3d3e b110 b63e
00000390: cab5 32be b38c 21be d86e a13e 0e58 013d
000003a0: 1936 e03d ef06 c13d e5e0 073f 5ef4 af3e
000003b0: 0c65 d1be 2387 0f3f 5155 973e e124 703d
000003c0: 23ce d6be 54df 8a3d 00b0 f9be dbc9 cf3d
000003d0: e451 173f 1af9 9e3e 7fae b3be fec8 31bf
000003e0: efe9 813f 76e0 77bf 5cc4 793d e9b2 71bf
000003f0: 30d2 f2be 1d77 bfbc 24b2 8f3d 6841 303d
-0.43064758 -1.5061266 0.013263679 -1.0147548 -0.5517354 -0.033757705 0.019888202 0.20971023
-0.14714205 0.036156368 -0.16772135 0.15297148 0.018650794 0.7844155 0.30362707 -0.058504798
0.11982281 0.23342374 0.21177924 -0.43578243 -0.28521776 0.7766929 0.09911459 -0.35789418
-0.09639588 -0.5152947 -1.3372834 0.25624663 1.2078214 0.24051055 0.07293603 0.36264777
-0.039540432 0.41227007 -0.15400879 0.472825 1.1190321 -0.23389688 -0.4920795 -0.4664928
0.042311832 -3.2473748 -0.2583243 -0.64047176 0.29427814 -0.32791704 0.005070816 0.016540393
0.19092503 0.145793 0.21882676 0.23939733 -0.55499244 -0.61476964 -0.3099622 0.60111475
0.36249912 -0.13959554 0.47857738 -0.26429513 0.080395445 -0.14081994 0.14920622 0.48722854
-0.07088361 -0.16614571 -0.27319235 -0.62756884 0.31798166 0.34665158 0.23243897 0.47000545
0.33066735 -0.120887205 -0.91194165 -0.27252185 -1.4586278 -0.13501409 0.09229466 0.13494362
0.5633074 0.072150804 -2.423779 -0.09057989 0.2559362 -0.051557105 0.13968217 -0.007991637
0.7794885 -1.7852877 0.12244111 -0.9469901 -0.3127719 -0.91134936 -0.2717755 0.23472284
-0.19795011 0.30002508 -0.5503704 0.36770213 0.64072937 0.5318082 -0.8073678 -0.50745887
0.3923526 -3.0867634 -0.53666204 -0.67237693 0.47216803 -0.8317013 0.27248502 0.06392592
0.88499343 -1.009156 0.4176437 -0.28572658 0.025189374 -0.2576743 0.086540885 0.2239678
0.14657274 -0.084568575 0.43230963 -0.28213263 -0.30980557 0.58277035 -0.22082295 -0.8501103
0.24309894 -0.35593286 -0.040916394 -0.73834294 1.3006824 0.1225898 -0.22754864 0.030025639
-0.3198537 -0.6691797 -0.7671171 -0.112849645 0.9802865 -0.057101004 0.4205184 -0.2581356
0.23248166 -0.28700888 -0.37615228 0.08461386 1.2985606 0.0657747 -0.10174416 0.064031355
0.1831208 -0.018179739 -0.20742506 0.2689139 -0.2093927 0.015962731 -0.107365765 -0.09410919
-0.18338789 -0.035429947 -1.3569702 -0.64996386 1.679836 -0.08131484 -0.22954412 0.023145415
0.4428855 -0.09003476 -0.19801204 -0.764106 0.82065785 0.20250386 -0.73518676 -0.14972992
0.46930444 -2.2321863 -1.129641 -1.6708246 -0.31578818 -0.30540794 0.09484572 0.06853751
-0.048352133 -0.45185357 -1.013193 1.3415982 0.65295166 0.22953846 -0.16738799 0.44605798
-0.082903706 0.17391148 -0.99691933 -0.6439395 -0.26692182 -0.037529875 0.09259025 0.094545536
0.53044564 -0.20374872 0.37335834 -0.3619986 -0.027481439 -0.78567374 -0.35298756 0.26742586
-0.46555892 -0.029792083 -0.20503908 0.77019954 -0.4233504 0.28700748 0.31403175 0.3143819
-0.16518989 -1.1980222 -1.0758804 -0.29413214 0.5174189 -0.3877616 0.3298039 0.13703744
0.88851756 -0.780507 0.18533245 0.3555961 -0.1745216 -0.15776329 0.3152988 0.031578116
0.10947818 0.094251506 0.53077537 0.34366125 -0.40897405 0.5606558 0.2955728 0.05862892
-0.41954145 0.06780878 -0.4876709 0.10145923 0.5910933 0.31049424 -0.35094067 -0.69447315
1.0149516 -0.96826875 0.06097828 -0.9441362 -0.47425985 -0.023372227 0.070163995 0.043031126

layers.0.bias f4 [128]
00000000: 902d bebd 13bf fe3d 6cfd 993e 5850 aebe
00000010: bb18 253d 4b51 f43e 03b1 8cbe 1b07 93be
00000020: 40bc 55be 3fc8 b33d 59bb a13e d357 2f3e
00000030: 47a2 3d3d 2699 0abd 8a93 9dbe 35e3 573e
00000040: f48a d13d 6858 33be 89f4 663e 2997 bbbe
00000050: 483a 5e3e 4601 ea3d c17c c13e 2aa6 8cbe
00000060: 59fb 093e 9747 c0be 9c8e 36bb 5df0 e8be
00000070: d5cb a9be 5ccd 85be 4805 6e3e d666 24be
00000080: f99c dabe d3dc 87be e507 c8be ff5c 403f
00000090: 7acd 93be 1e9a aebe 51ca dd3e 8ba2 adbe
000000a0: 2e2e 5c3d 98f3 edbd 0217 b6be 6355 df3e
000000b0: 9d91 e13b 37b1 9cbb 7fed b8be 11ac 90be
000000c0: 82dd 37be cdc3 a33e 38d0 b3be df88 223f
000000d0: 3d49 513e 2d4d 343d 9610 823e 3286 0b3f
000000e0: 54db e7be 4fd4 6cbe bfd2 3eba fe12 ccbd
000000f0: 02bb 9abd 0b5a 84be ba68 91bd 7813 2a3f
00000100: 6257 8c3e 1449 05bd 935c f0be 14a3 8abe
00000110: 1755 8fbd 47de 103f 42ae 443d 1c07 95be
00000120: 8964 ddbd 51d6 92bd 788f ebbd 3259 5abe
00000130: 1aec ed3e 8bd1 913d d76f ee3e 134b 50be
00000140: d606 b9be 9846 433f 7d97 91be dbf5 8b3b
00000150: a75e 73be 14c5 7a3d f3b0 32be 361e d33e
00000160: c1b5 a63e ceb4 a2bd 142e 873e 9b22 53be
00000170: 6578 84be 9fb2 bd3e 95b2 0d3f ca40 f83e
00000180: ae83 d5be 4eee 3cbd 7257 7e3c 20e5 6dbe
00000190: 0556 b4bb d7aa 32be 9eea 8b3e 941b 2a3f
000001a0: f5c0 b5be 4e50 dc3e e2db 63be 57d2 4f3e
000001b0: 8713 80be 195e 053e 7674 a13e 2388 8dbe
000001c0: 06c7 cb3e 9224 6dbe b44c 68bd 2562 a83e
000001d0: 475f 9f3d 21ae 7b3e bd10 ab3e 0d1d 933c
000001e0: ef6b 09bc 5aa3 4f3d 690f 243f a5c1 afbd
000001f0: 7d25 de3e dfc3 f13e f64f fa3b 8aa9 c43e
-0.09286034 0.12438788 0.30076158 -0.34045672 0.040306788 0.47718272 -0.274788 -0.2871636
-0.20872593 0.08778428 0.31588247 0.17123346 0.046297338 -0.03383746 -0.30776626 0.21082766
0.10231581 -0.17514193 0.2255422 -0.36638764 0.2170192 0.11426024 0.37790492 -0.27470523
0.13474788 -0.3755462 -0.0027855998 -0.45495883 -0.33163324 -0.2613324 0.23244202 -0.16054854
-0.42697886 -0.26535663 -0.39068523 0.751419 -0.28867704 -0.34101957 0.43318418 -0.33913073
0.053754978 -0.116187274 -0.3556443 0.43619832 0.0068838135 -0.004781868 -0.36118695 -0.28256276
-0.17955592 0.31985322 -0.35119796 0.634901 0.20438094 0.044018913 0.2540328 0.5450164
-0.45284522 -0.23127864 -0.00072793284 -0.0996456 -0.075552 -0.25849947 -0.07100053 0.66435957
0.27410418 -0.032540396 -0.4694563 -0.27077544 -0.069986515 0.5658917 0.048017748 -0.29106987
-0.10810191 -0.07169784 -0.11501974 -0.21323088 0.46469194 0.07120045 0.46569702 -0.20341139
-0.36138028 0.7627959 -0.2843589 0.0042712516 -0.23766576 0.061223105 -0.17450313 0.41233987
0.32560542 -0.07944642 0.26402342 -0.2061867 -0.25873104 0.3705034 0.5535062 0.4848693
-0.41702026 -0.046125703 0.015523778 -0.23231936 -0.0055034184 -0.17447983 0.27327436 0.6644833
-0.35498777 0.43030018 -0.22251847 0.20295082 -0.25014898 0.13024177 0.31534165 -0.27642927
0.3980028 -0.23158482 -0.056713775 0.32887378 0.077818446 0.24578144 0.33411208 0.017958188
-0.00838755 0.050692894 0.64086014 -0.08581857 0.43387976 0.4721975 0.0076389266 0.38410598

layers.2.weight f4 [128, 128]
00000000: e2da e63e ac9a 4e3e 78da 04bc 6860 d0be
00000010: 5157 e3be b44f 023e 0e14 d8bd 4c0d e53d
00000020: 7636 a23d a820 643e 8740 8fbe 8f45 363e
00000030: 3795 633e 4d8c 543e b3f9 053f ef32 033e
00000040: 71fc c3bc da91 a5bd 8b39 b2bf bda5 873d
00000050: 77c2 2cbf 1eff d3be 8531 cf3e 532a 583d
00000060: 7007 fcbd 7018 33be 3c77 d7bd 3615 2d3d
00000070: 6345 a73e 5c5d bf3e 8a23 04bf 7033 1a3f
00000080: 6ee7 88be a574 9d3e 4a61 f1bc 8f01 a0bd
00000090: fc9d 663e 233f ee3e 8507 56be f177 8f3e
000000a0: 66ef bebe 6b65 e5be 630a 543e 5107 4d3e
000000b0: 03fc 873e 858b 87be b278 3cbf 0862 ad3e
000000c0: d92d 073f f08e a4bf 7d2e cdbd 2267 1cbf
000000d0: 1b58 f4be ceed 883c 61c8 9abe ee9a 713e
000000e0: d05d 83bc ea3d 473e 73a4 f13e 7d94 a0be
000000f0: 9876 143f 3192 ec3e 017c babd d183 aabe
00000100: 15d7 89bf e2ef 173e 6139 66be 0bff 123c
00000110: 8803 523e 1104 f53d adb0 513d 02d7 e83e
00000120: a278 5b3f 2b5e 17bf 3b99 3c3e 6453 753d
00000130: ddc2 3ebd ec54 abbe 2ef0 d8be 922c c73e
00000140: 62d7 223e 7136 ddbe e1cb 0bbe ce39 eb3d
00000150: ea8f 3f3f 1870 b5be 8810 59be deb3 613e
00000160: 995a 68be 8429 023e 484e 933b 9b9b edbc
00000170: 0457 febd 1cdb 73be 37f0 53be a035 2cbe
00000180: 6b14 353e 8c6d 7b3e 4fac a2be cb63 c13d
00000190: 6ed3 47be d0ef f5bc d80f 2dbe 2e71 f2be
000001a0: 244e 9c3d 1025 6e3c 8318 44bf 5ab9 513e
000001b0: fb43 4e3e 5284 30bd 3f54 fbbe 0a4e 09bf
000001c0: f10e 4fbd 5191 9c3e f68b d9bc 04aa d4be
000001d0: 887a 8bbf db44 9f3d ccfe ffbe 0b98 4fbe
000001e0: 9185 a13d 7c16 163e 615a a5bf f0c0 943e
000001f0: b8fa 983e a962 863d a4bb 63be 84dc 08bf
00000200: a406 463e 5a51 743e 1b4b 913e 43fe 2c3e
00000210: fcc4 0e3f c732 733f 8988 08be 4f10 d53e
00000220: 9eab be3d c54c 0b3f 8e74 0b3e 000f 1d3f
00000230: 1297 50be 5b40 643f 66fd a1be 84d5 cf3e
00000240: 3334 1b3f f88c 90be 9cc6 123e e2b0 cfbc
00000250: 081d e53d 6a9a cb3e 5381 393f 1155 39bf
00000260: 7c2d fa3d 820b c63d f2c7 cb3d b023 30bf
00000270: 5a1f 57bd e07a 003f f208 49bd 2a8d 0bbf
00000280: a542 163f 3428 19bf 5952 c6bb a8f6 673e
00000290: 8ea4 a63d fcbb 193b c10b 473e 790b 66bf
000002a0: 2259 d0bd 0c96 a1bf a110 c13e 4da0 c43e
000002b0: de23 a03e ac7e 7bbe d988 abbd b951 513e
000002c0: 40de 933e 8c57 af3e 3ece 94be d3e2 3f3e
000002d0: 0cbf 13bf b94d 533e bf43 a1bf 261a 203f
000002e0: d906 c7bd f922 abbe 29c9 a43f ec4c 47bf
000002f0: 66dd 69bd 8f72 37be 4157 14bf 8fc6 1a3e
00000300: 96bf f33e 1e69 343e 2275 98bd cb1a de3d
00000310: d87c 873d 6d68 293f 6968 e83e d80f e33d
00000320: 1cd1 16bf 9214 953e 04dc a83e ff5f 96be
00000330: dd8a b53e c79d 7b3e 5e2d 0ebd 2446 58be
00000340: dd1f 48be df9d 943e f5d0 893c 7f14 27bf
00000350: 0acf e3be ee6c f7be 6f3e 1c3b 8ce1 8a3e
00000360: a941 3a3e 13b4 bfbe 71af ce3e 9cd7 373e
00000370: 086d e8be 6392 63bf fc9f 44be fd11 0c3f
00000380: b168 533d 6559 203d 8ff5 573f eeb6 3c3e
00000390: 488a 3abf 59dc 49be 8dda db3d 5651 b53e
000003a0: ae0a 40be 3370 e43e f740 573b 9d2b 3b3e
000003b0: 8e8d cbbe a4aa 90bb 42ea b43e dfc7 713e
000003c0: 8d7c f63e 5fe0 903e 7f77 5a3e c636 053f
000003d0: b03a 6d3e 91da d03e e0c2 173f 0717 963d
000003e0: 7c05 f73e 8770 52be 34c0 983e 7ff2 4f3d
000003f0: f1a3 1a3f 0923 633e da1b c6be ffc2 a83e
0.4508887 0.2017619 -0.008108728 -0.40698552 -0.44402555 0.12725717 -0.105507 0.11184177
0.07920544 0.22278082 -0.27978918 0.17799972 0.2222489 0.20756646 0.52334136 0.12812398
-0.023924084 -0.080844596 -1.3923811 0.06623409 -0.6748423 -0.41405576 0.40467468 0.05277474
-0.12306106 -0.17489791 -0.10520789 0.042256556 0.32670125 0.37375915 -0.5161673 0.6023474
-0.26739067 0.30753055 -0.029465336 -0.07812797 0.22521204 0.46532544 -0.20901306 0.28021196
-0.37292022 -0.44803938 0.20707087 0.20022322 0.26559457 -0.26473632 -0.73621666 0.33863854
0.5280433 -1.2856121 -0.100186326 -0.6109487 -0.4772347 0.016714957 -0.30231002 0.23594257
-0.016035944 0.19457212 0.47195777 -0.31363288 0.5799346 0.46205285 -0.09105683 -0.33303693
-1.0768763 0.14837602 -0.22482826 0.00897194 0.2050916 0.11963666 0.05119388 0.45476538
0.85730946 -0.59128064 0.18417828 0.05989398 -0.046572555 -0.33463228 -0.42370743 0.38901192
0.15902475 -0.43205598 -0.13651992 0.11485635 0.7482897 -0.35437083 -0.21197712 0.2204127
-0.2269081 0.1271115 0.004495416 -0.029004863 -0.12418941 -0.23814052 -0.20697103 -0.16817331
0.1768357 0.24553508 -0.31772086 0.09442862 -0.19514248 -0.030021578 -0.16900575 -0.47351974
0.07632092 0.014535204 -0.765999 0.20480862 0.2014312 -0.04309494 -0.49087712 -0.53634703
-0.05055136 0.30579618 -0.026555996 -0.41535962 -1.0896769 0.07776805 -0.49999082 -0.20272844
0.07886804 0.14657015 -1.2918206 0.2905345 0.29878783 0.06561787 -0.22239548 -0.5346148
0.1933847 0.23859158 0.28377613 0.16893868 0.55769324 0.94999355 -0.13333334 0.41614005
0.09310077 0.54414016 0.13618681 0.61351013 -0.20370129 0.891607 -0.3163864 0.40592587
0.60626525 -0.2823255 0.14333576 -0.025352899 0.11187178 0.39766246 0.7246296 -0.72395426
0.12215707 0.09670164 0.09950246 -0.68804455 -0.052520134 0.5018749 -0.049080797 -0.54512274
0.5869544 -0.5982697 -0.006052297 0.22652686 0.08136855 0.0023457995 0.19438078 -0.89861256
-0.10173251 -1.2623916 0.37708 0.3840355 0.31277364 -0.2456004 -0.08375711 0.20441331
0.288805 0.3424648 -0.290636 0.1873887 -0.5771339 0.20635118 -1.25988 0.625399
-0.09718103 -0.3342512 1.2873889 -0.7785175 -0.057095908 -0.17914794 -0.5794564 0.15114807
0.47607106 0.17618224 -0.07444216 0.10844954 0.06615609 0.66174966 0.4539216 0.11087006
-0.58912826 0.29117256 0.3298036 -0.29370114 0.35457507 0.24571906 -0.034711234 -0.21120507
-0.19543405 0.29026696 0.016823271 -0.6526565 -0.44493896 -0.48325294 0.0023840924 0.27125204
0.1818911 -0.37442073 0.40368226 0.17953342 -0.45395684 -0.88895243 -0.19201654 0.5471495
0.051613513 0.039147753 0.8435907 0.18429157 -0.7286725 -0.19712962 0.10735045 0.35413617
-0.18754074 0.4461685 0.0032845119 0.18278356 -0.39756435 -0.004414873 0.35334975 0.23611401
0.481419 0.28296182 0.21334647 0.520367 0.23166919 0.40791753 0.5928173 0.07328611
0.48246372 -0.20550738 0.2983414 0.05076837 0.60406405 0.22181334 -0.38693124 0.3296127

layers.2.bias f4 [128]
00000000: 5f06 dcbe c59a 793e f303 923e 961e 1f3e
00000010: 6cf6 74bb e2d2 143d f38e 88bd d301 4c3e
00000020: 8301 6c3e dca7 0c3c dbda 0c3e 3216 063f
00000030: 4069 fa3d 52b9 ec3d 3f5f 9d3e 81ef adbd
00000040: 3a7b 823d c90e 363d 0003 933d 163a f73d
00000050: e205 573e 87ef 0dbd 3444 913e ba0e b03d
00000060: b94f d53d 7b4c b83e 2991 c83d 04ea 753e
00000070: 87ab 413d 7f99 68be 5bfc 2f3e f201 0a3e
00000080: 0215 473e 35f2 a13d 2ec3 0d3e 144f db3d
00000090: 2986 9ebc c41b 293e 192a 7c3e 7186 513d
000000a0: e4ec db3d 3dbe d7bd 659f 9cbd 73c4 3abe
000000b0: 97c0 133f f7ad 973e dba9 183d f279 ec3e
000000c0: 1a4c 03bc 8f43 023f 89fb 383d 07b1 8c3e
000000d0: ac41 6bbe 6d27 71bd 3524 713e 5686 bfbd
000000e0: 9363 af3e a862 a63d 3168 83bd b9c1 a83b
000000f0: e704 a63e dffe 253c 9525 81bc 5f6f e63d
00000100: fc6f 2c3e 4ab1 883c face 383e a2bc 183d
00000110: 77c8 e23e 45eb 0b3e 7469 c8bd ae2e a4bd
00000120: 010e 803e 2d80 3d3c a203 edbb aaf7 41bd
00000130: 3e7c 263e ba91 553d a35b 733e fc3b 563d
00000140: ada5 883e ac88 833e b897 633e eb4c 3abd
00000150: 81a9 68bd 577e 953e de7e 7a3d 89fb e53d
00000160: 3128 703e 59bc a23e 96d5 e03d 04cb e2bd
00000170: 8a61 48bd 98df 233c 2b4a 2e3e fd34 893e
00000180: 2eb9 64bd 7f9c a6bc 3a32 7dbe 4230 1bbe
00000190: 59e0 4cbd 7d89 173d 1b9f 1e3e 9ede ef3d
000001a0: ed89 e13e 3ea5 293e 0405 823e 7d14 2abd
000001b0: a453 86be 93b5 bdbb 505d ce3c d9ec 913d
000001c0: ab11 ebbc ad91 093e ad05 7d3e bf0b ec3d
000001d0: efd3 5f3c 64cf 433e 9707 e63d e613 583e
000001e0: b09d 963e a6c4 323e 4a4c 093d f106 b23d
000001f0: 2520 8e3d 7c55 cf3d 5d1c cf3d 47d5 f53c
-0.4297361 0.24375446 0.28518638 0.15539011 -0.0037378324 0.036333926 -0.066678904 0.19922571
0.23047452 0.008584943 0.13755362 0.5237762 0.12227106 0.115587845 0.3073673 -0.08492947
0.0637116 0.044447694 0.071783066 0.12071626 0.20998338 -0.03465226 0.28372347 0.08596559
0.104155965 0.3599585 0.09793312 0.24015051 0.04728272 -0.22714804 0.1718611 0.13477305
0.19441608 0.079075254 0.13843986 0.10708442 -0.019351082 0.16514498 0.24625434 0.051153604
0.10738543 -0.10534332 -0.076475896 -0.18239002 0.57715744 0.29624912 0.03727136 0.46186787
-0.0080137495 0.50884336 0.045161758 0.2747881 -0.2297427 -0.05887549 0.23548968 -0.093517944
0.34255657 0.08124286 -0.06416357 0.0051500467 0.32425615 0.010131567 -0.01576499 0.11251711
0.16839594 0.0166861 0.18047705 0.03728927 0.44293568 0.13663967 -0.097857386 -0.08016716
0.25010684 0.011566204 -0.007233099 -0.04735533 0.16258332 0.05214093 0.23765425 0.0523033
0.266889 0.2569021 0.22225845 -0.04548351 -0.056802277 0.29197952 0.061156146 0.11229617
0.23452832 0.31784323 0.10978238 -0.110738784 -0.048921145 0.010002039 0.1702048 0.2679824
-0.055840664 -0.020338295 -0.24726191 -0.15155128 -0.050018642 0.036996353 0.15490381 0.11712383
0.44050542 0.16566941 0.25394452 -0.041523445 -0.26235688 -0.0057894676 0.02519098 0.07125253
-0.028694948 0.13434477 0.24709196 0.11525678 0.013661369 0.19122082 0.112319164 0.2110134
0.2941718 0.17457828 0.03352002 0.0869273 0.06939725 0.10123727 0.10112832 0.030008925

layers.4.weight f4 [4, 128]
00000000: 6e45 243f 7720 133f 1cd5 863f ba92 00bf
00000010: 5748 29bf 094e cbbd 7c52 533c 22de 13bf
00000020: f912 aebe 0ff2 9a3c 91fa d6be 41ce 8e3f
00000030: fed0 7dbe ef4d 013f 88f0 5b3f c206 a63d
00000040: f597 cdbe 5626 26bf 60b1 a7be 4454 adbe
00000050: 171a 80be c46c 31bc a018 b73f 0d3c 2fbf
00000060: ba2e 67bf 6c68 b53f e845 f5be 5de1 c8be
00000070: 16b3 d2be 794c 5dbe e861 9f3f cbbf 9bbe
00000080: f549 5abf 6de8 bfbe d9da 7bbe dfd9 9fbe
00000090: 11ed aabe e5b6 8c3f 1643 2ebf f786 07bf
000000a0: f04e aebe 4aae 32bd b2f7 813c bd6d 87bf
000000b0: a641 8c3f 0fe4 3d3f 8a79 803f 87db 243f
000000c0: 189d e23c 481f c2bf 7a11 f73e cbe2 193f
000000d0: 835d b2be 3b94 9bbd 4540 0abf d454 4abc
000000e0: 923d 873f 24f5 8fbe a48d f8be 042b e3be
000000f0: 7e2e 603f 5814 1abf 90c2 a6be 9f91 7abe
00000100: bfd1 abbe 497c ee3e debf 54bf 199a 68bf
00000110: 66c5 673f 08f7 683e b351 e2be d8e8 e7be
00000120: fa0e 32bf 1da8 bfbe f245 46bc ec8f 9fbe
00000130: 918d 02bf 88a7 50bf 70f3 873f 556c 263c
00000140: ab52 fcbe 0288 8f3f 8204 a6be 703e a7be
00000150: 18e1 4bbe f5ad 63be 5597 583d 7965 483f
00000160: 0c44 0d3f c5c8 8abf 7432 27bf 5682 10bf
00000170: 6a1d 15bd b966 d1be ae08 56bf cd4a 81bf
00000180: f2a4 11bf ace1 4fbf e8f6 a53f 4aaf 9ebe
00000190: f1fb d5be 6489 6abf c436 413e 55c7 2fbf
000001a0: 38df 4a3f 4c7d 99be dadf 8a3f dade 86bb
000001b0: 6f42 17be 0e7f b2be f542 7cbf 1a00 c0be
000001c0: 1b64 acbe 20db 963f 0b46 f9be 8e5b 29bf
000001d0: 5afd 843f 2e3c a4be 9bb8 d6be 677f 3fbf
000001e0: 4e8c e3bf cae7 10bf 5987 08bf 7cb0 bbbe
000001f0: cdd8 17bf c21f 05be 0f06 1bbf e1ba d3be
00000200: a80b a0be 8f21 503f 56e0 a33f 434e 43bf
00000210: 3eaa 00bf f1a5 6abc 6945 56bd b606 21bf
00000220: af82 75bf 40ac 293d 8dac b5be 3c33 5a3f
00000230: 43b2 0bbf 3ce7 293f 6d7c d03e 5139 44ba
00000240: 7aad b7be 58b6 03bf afe3 8cbe 779e 17bf
00000250: b40a cabe 8190 ddbe 7d6e 963f 9c02 06bf
00000260: 99f6 983d 88ad ab3f dbae 41bf 5d40 bfbe
00000270: cd89 efbe c8c6 34bf c6fd 853f 1f49 e2be
00000280: 8e4e 33bf fbea c1be 4020 1dbf 08c5 c0be
00000290: 6d90 e3be a3d5 7e3f 14fd d4be 180d 08bf
000002a0: a543 ccbe e60a 193d 11ad 1fbd 4808 1e3e
000002b0: 8b38 743f e2b2 4e3f 236c 893f 7118 0d3f
000002c0: 9c6b 6dba 2a67 11bf 5c85 3c3f 25d6 373f
000002d0: c5d5 57bd 2f0e b83a 6055 8ebe dbe7 283d
000002e0: 2c2c b23f cc69 edbe c84a 16bf 44d8 4ebf
000002f0: fc4b 2f3f 58e7 4fbf d8bb 4ebd 7ab3 0cbf
00000300: 617c e7be ad73 213e 2123 6abd 1286 31be
00000310: 7f1b ab3f 6a49 033e eef1 3dbf ec3c 38bf
00000320: 420c b4be e654 e0be 7bc2 323f 8170 c8be
00000330: 4acc ccbe 0e10 7abe 7759 3d3f e5c6 6cbd
00000340: ed63 01bf 28a0 063f 67a5 d1be 6a2c 2cbf
00000350: e223 8ebf 7ca7 01be 52bc a0bc 90cc 563f
00000360: e583 e03f 160f 61bf f7fe dabe c94b dcbe
00000370: 4089 363d 4c87 debe 12e5 d33c 8296 3ebd
00000380: 0c98 e3be bf0f 53bd 10b8 a73f 9e85 bebe
00000390: eb33 34bf 58f1 a3be 258d 223f 9c47 94bf
000003a0: f094 7c3f ca2f 4fbf c1d0 763f 6696 c93c
000003b0: 41ab 41be 02c3 ccbe 3934 ebbe 2dfd e1be
000003c0: c152 e8be cc54 b13f 8a99 60bf 3001 9ebe
000003d0: 9ae2 5e3f cee7 30bf 2c0e cbbe 7b12 0abe
000003e0: 1d05 f3bf 1eaa 1fbf 73c1 f1be 463e 0abf
000003f0: 11f5 22bf 6fb0 c1be 2acb f5be 0b38 aabe
0.6416844 0.5747141 1.0533786 -0.50223887 -0.66126007 -0.099269934 0.012898084 -0.5776082
-0.3399885 0.01891425 -0.41988042 1.1156694 -0.24786755 0.5050954 0.85913897 0.08106758
-0.40154997 -0.64902246 -0.32752514 -0.33853352 -0.25019905 -0.010829154 1.430439 -0.68451005
-0.90305674 1.4172492 -0.47904897 -0.3923444 -0.41152257 -0.21611203 1.2451754 -0.30419764
-0.852691 -0.37482014 -0.24595203 -0.3122091 -0.33383992 1.0993315 -0.68071115 -0.52940315
-0.340446 -0.043623246 0.01586518 -1.0580364 1.0957534 0.74176115 1.0037091 0.6439747
0.027662799 -1.5165796 0.4825552 0.60111684 -0.3483697 -0.07596632 -0.5400432 -0.012349326
1.0565665 -0.28116715 -0.48545563 -0.44368756 0.8757094 -0.6018729 -0.32570314 -0.24469613
-0.3355846 0.46579197 -0.83105266 -0.90860134 0.9053558 0.22750485 -0.44202957 -0.45294833
-0.695541 -0.37432948 -0.012101637 -0.3116449 -0.50997263 -0.8150563 1.0621166 0.010157664
-0.4928182 1.1213381 -0.32425314 -0.32664824 -0.19910085 -0.22234328 0.052878696 0.78279835
0.55181956 -1.084252 -0.6531136 -0.56448877 -0.036405005 -0.40898684 -0.83606994 -1.0100952
-0.5689231 -0.8120372 1.2965975 -0.3099311 -0.4179378 -0.9161589 0.18868548 -0.6866353
0.79246855 -0.29978406 1.0849564 -0.0041159214 -0.14771436 -0.3486256 -0.9853967 -0.37500077
-0.33670124 1.1785622 -0.4868625 -0.66155326 1.0389817 -0.32077163 -0.41937718 -0.74803776
-1.7777193 -0.5660368 -0.53331524 -0.36658084 -0.59315187 -0.13000396 -0.6055612 -0.41353515
-0.31258893 0.81301206 1.2802837 -0.7629129 -0.5025977 -0.01432179 -0.05231229 -0.62900865
-0.9590253 0.041424036 -0.35483208 0.8523443 -0.5456888 0.6636846 0.4071993 -0.00074853475
-0.3587454 -0.5145011 -0.2751746 -0.59226173 -0.3946129 -0.4327431 1.1752468 -0.5234773
0.0746891 1.3412333 -0.75657433 -0.37353793 -0.4678482 -0.70615816 1.046807 -0.44196412
-0.7004174 -0.37874588 -0.61377335 -0.37650323 -0.44446126 0.99544734 -0.41599333 -0.5314498
-0.3989536 0.03736391 -0.03898341 0.15432847 0.9539878 0.80741704 1.0736126 0.5511542
-0.00090568676 -0.5679804 0.7364099 0.71811134 -0.0526941 0.0014042313 -0.2779951 0.04123674
1.391973 -0.4636978 -0.5870786 -0.80798745 0.6847532 -0.8121238 -0.05047211 -0.5496136
-0.4521208 0.15766783 -0.057162408 -0.173363 1.3367766 0.12820974 -0.7419728 -0.7196796
-0.35165602 -0.43814772 0.69828004 -0.39148334 -0.3999961 -0.24420187 0.7396464 -0.057806868
-0.505431 0.5258813 -0.40946504 -0.6725527 -1.11047 -0.12661546 -0.019621048 0.8390589
1.7540251 -0.87913644 -0.42772648 -0.4302657 0.044564486 -0.43462598 0.025866065 -0.046530254
-0.4445194 -0.05152869 1.3103046 -0.37211317 -0.7039172 -0.32020068 0.6349662 -1.1584353
0.9866476 -0.80932295 0.96412283 0.024607848 -0.18912984 -0.3999253 -0.4593828 -0.4413847
-0.45375636 1.3854003 -0.8773428 -0.3086028 0.87064517 -0.69103706 -0.3965925 -0.13483612
-1.8985935 -0.62368953 -0.47217903 -0.5400127 -0.6365519 -0.3782992 -0.48006564 -0.33245882

layers.4.bias f4 [4]
00000000: a028 8bbd 5f0f e53d 5cc9 863e 0d56 073c
-0.06794858 0.111845724 0.263255 0.008260262
