dqn_lander_run2.pth (torch, 75893 bytes, 6 tensors)

layers.0.weight f4 [128, 8]
0	0xbe8ca139	-0.27466753
1	0x3d8c3db0	0.068477035
2	0xbeb92b98	-0.36166072
3	0xbe3f3802	-0.18673709
4	0x3cb03580	0.021509886
5	0xbf04fcd3	-0.5194828
6	0xbe744a5a	-0.23856488
7	0xbd4289cd	-0.0474947
8	0xbd7377e3	-0.059440505
9	0x3ebcaac2	0.36849028
10	0xbe9adf9d	-0.30248728
11	0xbed62623	-0.4182597
12	0x3ec156a8	0.37761426
13	0xbea26e75	-0.31724897
14	0xbec5a6a1	-0.3860369
15	0xbf02fc78	-0.51166487
16	0x3c31c286	0.010849601
17	0xbdb7683c	-0.08955428
18	0x3ed8060d	0.42192116
19	0x39ff11ca	0.00048650644
20	0xbec9be37	-0.39402935
21	0xbe83e402	-0.25759894
22	0xbdb4adb6	-0.08822195
23	0x3e829331	0.25502923
24	0x3b5a7428	0.0033333395
25	0x3de5c4d9	0.11219186
26	0xbe8fcee5	-0.28087536
27	0xbe0391b9	-0.12848558
28	0x3d1a7e76	0.03771826
29	0x3ea25550	0.31705713
30	0x3e0a44a8	0.13502753
31	0x3e47d723	0.19515662
32	0xbbd8123b	-0.00659397
33	0x3e76ab2e	0.24088737
34	0x3ee54d1d	0.44785395
35	0xbec323ad	-0.38113156
36	0xbd826b4a	-0.0636812
37	0x3f10aad2	0.5651065
38	0x3ee00b46	0.437586
39	0x3e9b9c1a	0.30392534
40	0xbefdb130	-0.49549246
41	0xbe86496e	-0.26227897
42	0xbf0f4533	-0.55964965
43	0xbca6908d	-0.020332599
44	0x3eba2968	0.36359715
45	0xbd62bc8b	-0.05535559
46	0x3dc22198	0.09479064
47	0xbe0d7cd6	-0.13817152
48	0x3e167baa	0.14695612
49	0xbeaf030f	-0.3418202
50	0x3e4f4c3a	0.20243922
51	0xbf09c69a	-0.53818667
52	0xbd70efe9	-0.058822546
53	0xbebc3ad1	-0.36763623
54	0xbe10cf44	-0.14141566
55	0xbd242154	-0.040070847
56	0x3db95872	0.09050073
57	0x3ee02edb	0.43785748
58	0x3e9fc396	0.31203908
59	0xbe87a82d	-0.26495495
60	0x3ead026e	0.33790916
61	0xbd4618e4	-0.04836358
62	0xbca7f29f	-0.020501433
63	0x3e6eefeb	0.23333709
64	0xbe9567b6	-0.29180688
65	0x3e0812cf	0.13288425
66	0xbf21b3f3	-0.63165206
67	0x3d02b2a7	0.031908657
68	0x3f009e07	0.5024113
69	0x3d8cdfc3	0.06878617
70	0xbe79007c	-0.24316591
71	0x3da3695f	0.07979082
72	0xbea0c853	-0.31402835
73	0x3d05eede	0.032698505
74	0x3e2d44cc	0.16920775
75	0xbd607b5f	-0.054805156
76	0xbe823448	-0.25430512
77	0x3eec1097	0.46106407
78	0x3ed3bcf4	0.41355097
79	0xbe99bf1b	-0.30028614
80	0x3ea8d23a	0.3297289
81	0xbed4daf5	-0.415733
82	0x3efcdefa	0.49388868
83	0xbed46495	-0.41482988
84	0xbe56d79a	-0.20980683
85	0xbe5c7a65	-0.21531065
86	0x3e67eb8f	0.22648452
87	0xbe0f9681	-0.14022256
88	0xbedd4995	-0.432202
89	0x3e3c341a	0.1837925
90	0xbe887cc0	-0.26657677
91	0x3eb9af8d	0.36266747
92	0x3e80bf67	0.25146028
93	0x3c075472	0.008259879
94	0xbed1a4e5	-0.40946117
95	0xbd932ff3	-0.0718688
96	0xbe34c21c	-0.17652172
97	0x3d253684	0.040335193
98	0xbee15f55	-0.44018045
99	0xbef12f87	-0.47106573
100	0x3ec7b894	0.3900801
101	0x3eeaefdc	0.45886123
102	0x3ea79206	0.32728595
103	0x3e047c5c	0.12938064
104	0x3ec04821	0.3755503
105	0xbd425238	-0.04744169
106	0x3e682488	0.22670186
107	0xbe576a24	-0.21036583
108	0xbeeba100	-0.4602127
109	0xbe521651	-0.20516326
110	0x3e735a79	0.23764981
111	0x3d23e668	0.040014654
112	0x3e7f99da	0.24961033
113	0x3d5ef85e	0.05443608
114	0xbd7577af	-0.059928592
115	0x3cbd944b	0.023142
116	0x3f2034c0	0.6258049
117	0xbe861bbc	-0.26193035
118	0x3e7055c0	0.23470211
119	0x3dc394f9	0.09549899
120	0xbe7395e7	-0.23787652
121	0x3ed840ac	0.4223684
122	0xbe55569b	-0.20833819
123	0xbf12cf9c	-0.57348037
124	0x3db9a170	0.09063995
125	0xbd915d28	-0.07097846
126	0x3eafa85d	0.34308138
127	0x3ebb6870	0.36603117
128	0x3eac7bef	0.33688304
129	0xbf28bf55	-0.6591695
130	0x3eb1f349	0.34755924
131	0xbf13cf88	-0.5773854
132	0x3ddf3540	0.108988285
133	0x3dba3de6	0.090938374
134	0xbd48e013	-0.04904182
135	0x3e66d5f8	0.2254256
136	0xbc8e5e37	-0.01737891
137	0x3e0b741a	0.13618508
138	0xbf90727d	-1.1284939
139	0xbe1f8801	-0.15579225
140	0xbe5894b9	-0.21150483
141	0xbcb31750	-0.021861702
142	0xbf0f8a3c	-0.56070304
143	0xbe94fe36	-0.29100198
144	0x3e5d61fc	0.2161941
145	0x3e8aee4a	0.27134925
146	0xbf5d1d25	-0.86372596
147	0xbf20c016	-0.627931
148	0x3e9e7e74	0.3095585
149	0x3e934cd2	0.28769547
150	0xbf1e66cc	-0.61875606
151	0xbe220eb6	-0.15825924
152	0x3d783096	0.06059321
153	0x3e7ee4ba	0.2489194
154	0xbcd66c1c	-0.026174597
155	0x3f512410	0.8169565
156	0x3ec9c027	0.39404413
157	0x3ef708ea	0.48248988
158	0xbde2f63e	-0.11082123
159	0x3cd589c3	0.026066666
160	0x3ec53fbc	0.38525188
161	0xbe3b8e68	-0.18316042
162	0x3ecbaa15	0.397782
163	0xbe9f9b30	-0.31173086
164	0xbeaca066	-0.33716124
165	0xbe934cb6	-0.28769463
166	0x3ec28e29	0.37999085
167	0x3c8f9937	0.017529113
168	0xbd89f52e	-0.067362174
169	0xbe2061d2	-0.15662315
170	0x3e0edd36	0.13951573
171	0xbdfede08	-0.12444693
172	0xbc9ef6e4	-0.019404836
173	0x3f1c5d2d	0.61079675
174	0x3eb8388f	0.3598065
175	0xbe777186	-0.241644
176	0xbe710721	-0.23537876
177	0x3e9d4840	0.30719185
178	0x3e4a8c80	0.19780159
179	0x3d449852	0.047996826
180	0x3dfde1da	0.123965934
181	0x3e49e74a	0.19717136
182	0xbefc4d1e	-0.49277586
183	0xbe0eb06b	-0.13934486
184	0xbed72d05	-0.42026535
185	0xbceddcda	-0.029035974
186	0x3c90f19a	0.01769333
187	0xbe320bbe	-0.17387292
188	0x3d8a153e	0.06742333
189	0x3ee17458	0.44034076
190	0xbe29172a	-0.16512743
191	0xbd30ecfe	-0.043194763
192	0x3cd033e3	0.025415367
193	0xbeb8a92c	-0.36066568
194	0x3f0ab299	0.5417877
195	0xbe60bac7	-0.2194625
196	0xbe5dd1db	-0.21662085
197	0x3e6ffa68	0.23435366
198	0x3ed53594	0.4164244
199	0xbe242c3b	-0.16032498
200	0xbe979d82	-0.29612356
201	0xbe0e6c14	-0.13908416
202	0xbefeaa5d	-0.49739352
203	0xbf099dc0	-0.5375633
204	0x3eaec88c	0.3413738
205	0xbed110ea	-0.40833217
206	0x3e4a51ef	0.19757818
207	0x3e7f4b0f	0.24930976
208	0xbd9da98c	-0.07698354
209	0x3ca87891	0.020565303
210	0xbe01338c	-0.1261732
211	0xbe94c4fd	-0.2905654
212	0xbe70cd32	-0.23515776
213	0x3f06bb9e	0.5263003
214	0x3e8b0ed9	0.27159765
215	0xbe6af5ee	-0.22945377
216	0xbdc2b41a	-0.09507008
217	0x3f059a50	0.5218859
218	0x400e252c	2.2210188
219	0x3d1a2439	0.0376322
220	0x3f2761df	0.65383714
221	0xbeceb444	-0.40371907
222	0x3f03d73c	0.51500297
223	0xbe83dfec	-0.25756776
224	0xbe86c4e0	-0.2632208
225	0xbf36ee13	-0.7145702
226	0xbe15646c	-0.14589089
227	0xbf456054	-0.7710011
228	0x3dae663f	0.08515596
229	0xbe2ec015	-0.17065461
230	0xbea1ade9	-0.31577995
231	0xbb8c9d0e	-0.0042911833
232	0xbe2c8ab4	-0.16849786
233	0xbd1fbf7a	-0.039000966
234	0xbd677545	-0.05650832
235	0xbe7a9b1c	-0.24473232
236	0xbe9dde08	-0.3083346
237	0x3efc2983	0.4925042
238	0x3e385011	0.17999293
239	0xbe7340c8	-0.23755181
240	0xbdc54b18	-0.096334636
241	0x3f200226	0.6250328
242	0xbecae8a5	-0.3963062
243	0x3f190510	0.5977335
244	0x3dace90e	0.08442889
245	0x3c6428da	0.013925755
246	0xbeba13f1	-0.3634334
247	0xbc045161	-0.008076043
248	0xbf1d5b10	-0.61467075
249	0xbe6d1f15	-0.23156388
250	0xbecbbed6	-0.39794034
251	0xbf1b8b5b	-0.60759515
252	0x3c6a9ff8	0.014320366
253	0xbdb7a86b	-0.0896767
254	0x3d4b59f9	0.04964635
255	0x3d83da8b	0.06438168

layers.0.bias f4 [128]
0	0xbe91c4e2	-0.28470522
1	0x3f00d4bf	0.50324625
2	0xbe2ef1ea	-0.1708447
3	0x3ef7b07b	0.4837683
4	0x3e7e0111	0.24805094
5	0xbdabdfd6	-0.08392303
6	0xbe86f537	-0.2635896
7	0x3f1c14ae	0.60969055
8	0x3e84e8cc	0.2595886
9	0xbe89bd6a	-0.26902324
10	0xbe98a3c9	-0.29812458
11	0x3dfa8318	0.122320354
12	0xbea735fa	-0.32658368
13	0xbdb8d339	-0.090246625
14	0xbe8664e5	-0.2624885
15	0x3f0c5c72	0.5482856
16	0xbea23b75	-0.31685987
17	0xbdf6613a	-0.12030263
18	0x3ee693b9	0.45034578
19	0x3e168c83	0.14702038
20	0xbd85b9aa	-0.06529553
21	0x3ebb0176	0.36524552
22	0x3eb6138e	0.35561794
23	0x3e392ab3	0.18082695
24	0xbe90b83e	-0.28265566
25	0xbcc22dc8	-0.02370347
26	0x3e1ea500	0.1549263
27	0x3d3fbe04	0.046812072
28	0xbc2ba3c7	-0.010476059
29	0x3e506b06	0.20353326
30	0x3e00bb0b	0.12571351
31	0xbdcb7d00	-0.09935951
32	0xbe206613	-0.15663938
33	0x3e0f4d3d	0.13994308
34	0x3d82b4e8	0.063821614
35	0xbab0859a	-0.0013467551
36	0xbe82291f	-0.25421998
37	0x3dd9cda7	0.10634928
38	0x3e617f6a	0.22021261
39	0x3f2cc762	0.67491734
40	0xbc359326	-0.011082446
41	0xbdb35c77	-0.08757871
42	0xbe7f6f90	-0.24944901
43	0x3c7ddd23	0.015494618
44	0xbe817d25	-0.2529079
45	0x3e35c7e2	0.1775203
46	0x3cf44756	0.029819172
47	0x3ddb9b67	0.10723
48	0xbdc4cf4a	-0.0960985
49	0xbdaacfc7	-0.08340412
50	0x3ecc0128	0.39844632
51	0x3e6d8ac7	0.2319747
52	0x3e566cf8	0.20940006
53	0xbe209cd5	-0.15684827
54	0x3e6ebc04	0.2331391
55	0x3d708572	0.058721013
56	0xbda31938	-0.079637945
57	0xbe1e6c21	-0.15470935
58	0xbe0b8d24	-0.1362806
59	0xbe27fba3	-0.16404586
60	0x3eade415	0.33963075
61	0x3dba63cc	0.09101066
62	0x3f0bcffc	0.54614234
63	0xbeaa05ff	-0.332077
64	0xbe311514	-0.17293197
65	0x3f0617cc	0.5238006
66	0x3ce93e59	0.028472112
67	0x3e2ec6a0	0.17067957
68	0xbcc933d3	-0.024560845
69	0x3eccfc17	0.4003608
70	0x3e103f2d	0.140866
71	0x3e01b555	0.12666829
72	0xbd436fe5	-0.047714133
73	0xbe9bc914	-0.30426848
74	0xbd156114	-0.036469534
75	0xbdd04ad0	-0.10170519
76	0x3ba64baf	0.00507494
77	0xbdfa6a41	-0.122272976
78	0x3e78384d	0.24240227
79	0x3f034be2	0.51287663
80	0xbd207563	-0.03917445
81	0xbe05083e	-0.12991425
82	0xbe890771	-0.2676349
83	0xbc98225a	-0.018571068
84	0xbe0ba127	-0.13635693
85	0xbe102ef2	-0.14080408
86	0x3db0aa1f	0.08626198
87	0xbe8d661d	-0.2761697
88	0x3e8d8fa1	0.27648643
89	0xbe3a5ff0	-0.1820066
90	0x3e7d138c	0.24714488
91	0xbed91147	-0.42395994
92	0xbe8ad796	-0.27117604
93	0x3dac12ee	0.08402048
94	0xbdb9f498	-0.09079856
95	0xbe670e2e	-0.22564003
96	0x3e9543d1	0.29153302
97	0xbe2df331	-0.16987301
98	0x3e9b72e3	0.3036109
99	0x3e3428af	0.17593645
100	0xbe81b2d1	-0.2533174
101	0xbe64f9d0	-0.22360921
102	0x3ea7b735	0.32756963
103	0x3e88c102	0.26709753
104	0x3e822ab0	0.25423193
105	0x3ca3e002	0.020004276
106	0xbe0e6e0e	-0.1390917
107	0xbe2b8ab2	-0.16752127
108	0x3ebbbc10	0.36666918
109	0xbe69cd1d	-0.22832151
110	0x3d680985	0.056649704
111	0x3e555fdf	0.20837353
112	0xbe29d1fa	-0.16584006
113	0xbe165402	-0.14680484
114	0xbdcc047b	-0.09961792
115	0x3e74fd1b	0.23924677
116	0xbe7e7cbc	-0.2485227
117	0xbd07a9d1	-0.033120934
118	0x3e6b08cb	0.22952573
119	0xbe30fc89	-0.17283835
120	0xbd3773f4	-0.044788316
121	0xbe7b34d6	-0.24531874
122	0xbe32b7a2	-0.17452863
123	0x3f1fc50d	0.6241005
124	0xbd95cf7d	-0.07314966
125	0xbc18dbae	-0.0093297195
126	0x3de68780	0.11256313
127	0x3f1f5323	0.6223623

layers.2.weight f4 [128, 128]
0	0x3e64048e	0.22267362
1	0xbd323dec	-0.043516085
2	0x3eb3cc44	0.3511678
3	0x3d4ab3fa	0.049488045
4	0xbd6e8ca1	-0.058239583
5	0x3e886431	0.2663894
6	0x3e4c2fe9	0.19940151
7	0xbdfb8b4f	-0.122824304
8	0x3e351428	0.1768347
9	0x3e9cb5ce	0.30607456
10	0x3ea4e971	0.32209352
11	0x3ed23c34	0.41061556
12	0x3e846d05	0.25864425
13	0x3e12e90f	0.14346717
14	0x3ddb4b7d	0.107077576
15	0xbd0b813a	-0.034058787
16	0x3ea354b0	0.3190055
17	0xbeda5d70	-0.42649412
18	0x3c9d41c9	0.019196408
19	0x3dda6114	0.106630474
20	0x3d66638b	0.056247275
21	0x3dfa920c	0.122348875
22	0xbe2f7ba6	-0.17137012
23	0x3e4892b3	0.19587211
24	0x3ea34e28	0.31895566
25	0xbe182364	-0.1485725
26	0x3e5c8b45	0.21537502
27	0xbd9671ee	-0.07345949
28	0xbd22c2b1	-0.039736453
29	0x3e1e69d1	0.15470053
30	0x3e72f35d	0.23725648
31	0x3eadcaa3	0.33943662
32	0x3df3515b	0.11880752
33	0xbed35ba2	-0.41280848
34	0xbe459219	-0.19294013
35	0x3e123e95	0.14281686
36	0x3e5d4d0c	0.21611422
37	0x3defdea6	0.11712389
38	0x3e600907	0.21878444
39	0x3d3e7318	0.04649648
40	0x3de5c6fa	0.112195924
41	0x3e46ed20	0.19426394
42	0x3eb4a9fa	0.35285932
43	0xbf1e687d	-0.61878186
44	0x3ea41208	0.32045007
45	0xbcd9d70e	-0.026591804
46	0x3e848beb	0.25888
47	0x3dac95ea	0.08427031
48	0xbdd98b80	-0.10622311
49	0x3e3c5fd6	0.18395934
50	0xbe859a3d	-0.26094237
51	0x3dc5db40	0.09660959
52	0x3eaf758c	0.3426937
53	0x3e3b1c25	0.18272455
54	0x3ddd1510	0.10795033
55	0x3dee6039	0.11639447
56	0x3e2476bc	0.16060919
57	0x3e8f04b2	0.2793327
58	0xbf5165d5	-0.8179601
59	0x3da1526c	0.07877049
60	0x3daa418a	0.08313282
61	0x3e017970	0.12643981
62	0xbb192e9c	-0.0023373729
63	0xbdaad14e	-0.08340703
64	0x3ed78e2a	0.4210065
65	0x3da42793	0.08015361
66	0xbf811c4e	-1.0086763
67	0x3dde3436	0.10849802
68	0xbcdef910	-0.027218372
69	0xbe0d5007	-0.1380006
70	0xbdc49330	-0.09598386
71	0x3e176a27	0.14786588
72	0x3e3fa3cc	0.18714827
73	0x3e7f562d	0.24935217
74	0x3df21259	0.11819906
75	0x3dec3204	0.11532977
76	0x3e07ad63	0.13249736
77	0x3daeebbe	0.08541058
78	0x3dd0157c	0.10160348
79	0x3d87776c	0.06614575
80	0x3d4cd1da	0.050004818
81	0x3eaae4ca	0.33377677
82	0x3e1c786f	0.15280317
83	0x3c3a12d9	0.011357033
84	0xbc2efa55	-0.010679801
85	0xbd5bf317	-0.053698625
86	0xbbcce032	-0.006252312
87	0x3e97ad96	0.29624623
88	0x3da5356c	0.0806683
89	0x3e3b6716	0.18301043
90	0x3e415d74	0.18883306
91	0x3e61e1f4	0.2205885
92	0x3e30e1e7	0.17273675
93	0x3e2a8fc2	0.16656402
94	0x3e262371	0.16224457
95	0x3d10570b	0.03523926
96	0xbdba3bab	-0.09093412
97	0x3deac1be	0.11462735
98	0xbd60c6e7	-0.054877188
99	0xbde91e27	-0.11382704
100	0x3e093a39	0.13401116
101	0x3ec3044c	0.38089216
102	0xbe1929d7	-0.14957367
103	0xbdf220f8	-0.118226945
104	0x3e36add2	0.17839745
105	0x3e87a3ee	0.26492256
106	0x3e69cf84	0.22833067
107	0x3e58e9c0	0.21182919
108	0x3d8206b3	0.06348934
109	0x3eb7ed7e	0.3592338
110	0xbe0191dd	-0.12653299
111	0x3d8830e4	0.0664995
112	0xbee21057	-0.4415309
113	0x3e744c0c	0.23857135
114	0x3de0f7e5	0.10984782
115	0x3c8eb16d	0.017418588
116	0x3e3d16c4	0.18465716
117	0x3d50126a	0.05079881
118	0x3e5d6ac0	0.21622753
119	0x3e6f843d	0.23390289
120	0x3dfdb770	0.123885036
121	0xbe920d8d	-0.28525963
122	0x3e2f8214	0.17139465
123	0xbb47c975	-0.0030485068
124	0x3ed7f103	0.42176065
125	0x3e549a5b	0.20762007
126	0x3e57a650	0.21059537
127	0xbde7b378	-0.11313528
128	0x3dff16ea	0.124555424
129	0x3dac17e1	0.08402992
130	0xbd95bd09	-0.07311446
131	0xbb962fec	-0.0045833495
132	0xbd511db5	-0.05105372
133	0x3d7cfbe7	0.06176367
134	0x3be92988	0.0071155466
135	0x3d980551	0.07422889
136	0x3ce4de5a	0.027938057
137	0xbe8a925e	-0.27064794
138	0xbe0eb3d0	-0.1393578
139	0x3da77b00	0.08177757
140	0xbcbb25f3	-0.022845244
141	0xbc242af6	-0.010020008
142	0x3e042bc6	0.12907323
143	0x3e13f9dd	0.14450784
144	0xbd7c6703	-0.061621677
145	0x3dfd0fb7	0.12356513
146	0x3d23335c	0.039843902
147	0x3d7dd47a	0.06197021
148	0xbd8205f2	-0.0634879
149	0x3d5e6063	0.05429114
150	0x3e4bc55f	0.1989951
151	0xbd70a455	-0.05875047
152	0xbe0650e2	-0.13116792
153	0x3dade1d2	0.084903374
154	0xbd7af5cd	-0.06126957
155	0x3e47fd97	0.1953033
156	0x3e1ce85e	0.15323016
157	0xbd5a096e	-0.05323165
158	0x3e8d6c69	0.27621773
159	0x3e00e0ae	0.12585708
160	0xbdbd6bb0	-0.092490554
161	0xbd73a9f5	-0.059488256
162	0xbd1019da	-0.035180904
163	0x3d84cbc5	0.064841785
164	0xbd9c123d	-0.07620666
165	0x3e074d03	0.13212971
166	0x3e21d952	0.15805557
167	0xbb5ffe4d	-0.0034178675
168	0xbd1113fb	-0.035419445
169	0x3dfca614	0.123363644
170	0xbc173348	-0.009228535
171	0xbd22fce1	-0.039791945
172	0x3d0fd97f	0.03511953
173	0x3d59f01b	0.053207498
174	0x3d58e0aa	0.05294863
175	0x3e206b2d	0.15665884
176	0x3da813c2	0.082068935
177	0xbe4e87ef	-0.20169042
178	0x3e832ce6	0.25620192
179	0xbd5893d6	-0.052875362
180	0x3c986632	0.018603418
181	0xbda550eb	-0.080720745
182	0x3bef1c34	0.0072970632
183	0x3e195685	0.14974411
184	0x3e97e281	0.29664996
185	0xbe00bbd0	-0.12571645
186	0x3cf25ac1	0.02958429
187	0x3d1eb243	0.038744222
188	0x3d86e68e	0.065869436
189	0x3d6bcf47	0.057570722
190	0x3dc9d399	0.09854812
191	0xbd5bb5c3	-0.05364014
192	0xbd11dd47	-0.035611417
193	0x3d8a0fa4	0.067412645
194	0x3ee4551e	0.4459619
195	0x3e3734ea	0.17891279
196	0xbb028538	-0.001991583
197	0x3d176569	0.036961947
198	0xbb86b18e	-0.0041105216
199	0xbcba2fcf	-0.022727875
200	0x3e257cea	0.16160932
201	0xbd7cd9f3	-0.06173129
202	0xbe814ace	-0.25252384
203	0x3e4d5ce7	0.2005497
204	0x3cc52632	0.024066065
205	0x3d07afa3	0.033126485
206	0xbcea2a50	-0.02858463
207	0x3e3b1968	0.1827141
208	0x3e069349	0.13142122
209	0x3cd7d73b	0.026347747
210	0xbd5c32fa	-0.053759553
211	0x3cb1b79b	0.021693995
212	0x3d58a46e	0.052891187
213	0x3d3d83dc	0.04626833
214	0x3e4b3adb	0.1984667
215	0xbe1eb112	-0.15497234
216	0xbc737fd4	-0.01486202
217	0x3d68b183	0.056809913
218	0x3d3c36f3	0.04595084
219	0x3d64b1a8	0.05583349
220	0x3e284e1b	0.16436045
221	0x3e0fece6	0.14055213
222	0xbcbdebd4	-0.02318374
223	0x3e093cd4	0.1340211
224	0xbbd7469a	-0.0065696957
225	0x3e268031	0.16259839
226	0xbd5420cc	-0.05178909
227	0x39254d05	0.00015764318
228	0xbe438b74	-0.19096166
229	0xbda28ee2	-0.07937409
230	0x3d0c7c9d	0.034298528
231	0x3dab6342	0.08368541
232	0x3d60e5f2	0.054906793
233	0x3d5bcbef	0.053661283
234	0xbe122dce	-0.14275286
235	0xbdb83dcc	-0.08996162
236	0x3dedcb5e	0.11611055
237	0xbdbc2fb3	-0.091887854
238	0x3e12eb47	0.14347564
239	0x3dafc8b2	0.085832015
240	0x3ea223f1	0.31668046
241	0x3db43e72	0.08800973
242	0xbc3626c8	-0.011117645
243	0x3d11215a	0.035432197
244	0x3d50faae	0.051020317
245	0x3db5b6b5	0.08872739
246	0xbcadd709	-0.0212207
247	0xbc412550	-0.011788681
248	0x3cf66149	0.030075686
249	0x3e4dcf47	0.20098601
250	0x3c82967d	0.015940899
251	0x3d9a33d7	0.07529419
252	0x3c399fc6	0.011329597
253	0xbd3248d4	-0.043526486
254	0xbdbfb01b	-0.09359761
255	0x3daaea21	0.08345438

layers.2.bias f4 [128]
0	0x3cc7539a	0.024331857
1	0x3c87a294	0.016557015
2	0xbd39bdff	-0.04534721
3	0xbdb69877	-0.08915799
4	0xbdf5fab1	-0.12010706
5	0x3e80b5ff	0.25138852
6	0x3e096253	0.13416414
7	0x3e4019e8	0.18759882
8	0x39ae2db4	0.00033221918
9	0xbb917cbb	-0.004439918
10	0xbdfed626	-0.12443189
11	0xbdef0184	-0.11670211
12	0xbe57a356	-0.21058401
13	0x3daa0077	0.0830087
14	0x3c66fef0	0.014098868
15	0xbe42c022	-0.19018605
16	0xbb1a2efe	-0.0023526545
17	0xbc0ec63f	-0.008714258
18	0x3cd18c98	0.025579736
19	0xbb5ef9ca	-0.0034023398
20	0x3e9eff0b	0.31053957
21	0x3ea74d4d	0.32676163
22	0x3c206e3a	0.009791905
23	0xbc90a272	-0.017655585
24	0x3c335c02	0.010947229
25	0x3d8325ac	0.0640367
26	0xbdba8063	-0.09106519
27	0x3d4b64de	0.04965674
28	0xbc8ecb2d	-0.017430866
29	0xbd78a657	-0.06070551
30	0x3d03be34	0.032163814
31	0x3e561119	0.2090496
32	0xbd6f231f	-0.058383103
33	0x3e94fcac	0.29099023
34	0x3dbc3998	0.09190673
35	0x3e6e3f7b	0.23266403
36	0xbd285694	-0.041098192
37	0x3bf77fab	0.007553061
38	0x3d0b72d0	0.03404504
39	0x3d3973ed	0.04527657
40	0xbcc9c8b8	-0.024631843
41	0xbdd6556a	-0.1046551
42	0x3de3828b	0.111088835
43	0xbd8b37ea	-0.06797774
44	0xbe1719d7	-0.14755951
45	0xbdeb0f3a	-0.114775136
46	0xbd6d059d	-0.05786668
47	0xbcbb0512	-0.022829566
48	0xbddef675	-0.10886852
49	0x3d72a852	0.059242554
50	0x3d037037	0.03208944
51	0xba50754d	-0.00079520495
52	0xbd7e0a99	-0.062021825
53	0xbbd6c2c8	-0.0065539815
54	0xbdab3f5d	-0.08361695
55	0xbd6e040c	-0.05810933
56	0xbd956874	-0.072953135
57	0xbd8e077a	-0.0693502
58	0x3d4f9db8	0.05068752
59	0xbd69569b	-0.05696736
60	0xbdeaaa99	-0.1145832
61	0x3e5b4a93	0.21415167
62	0x3e96f9be	0.29487413
63	0x3d480bb9	0.048839305
64	0xbd97a4de	-0.07404493
65	0xbbfaf9f2	-0.0076591903
66	0x3e88862b	0.26664862
67	0x3e03f1e2	0.1288524
68	0x3d064b7d	0.032786835
69	0x3e056850	0.13028073
70	0xbd30052f	-0.042973693
71	0x3eb4b3cb	0.3529342
72	0xbd7c41b1	-0.061586086
73	0x3e8e654b	0.27811655
74	0xbd8e80cb	-0.06958159
75	0xbda79504	-0.08182719
76	0xbd9eeb72	-0.077597514
77	0xbaed0329	-0.0018082607
78	0xbda4e4bc	-0.0805144
79	0x3e56436a	0.20924154
80	0x3d0152ec	0.03157322
81	0x3e2dd812	0.16976956
82	0xbde28f27	-0.110624604
83	0xbcc6d6ee	-0.024272408
84	0x3d50cbfc	0.050975785
85	0x3e3b0e72	0.18267229
86	0xbd3bdf7f	-0.04586744
87	0xbe09f3d2	-0.13471916
88	0x3e69a48e	0.22816679
89	0xbcfd06e8	-0.030887082
90	0xbdc78ac0	-0.09743261
91	0x3e2f7b4a	0.17136875
92	0x3cfacebc	0.030616157
93	0xbda72e17	-0.08163088
94	0x3dc1706f	0.09445273
95	0xbd44927a	-0.047991253
96	0xbdadcb3e	-0.08486031
97	0xbd372c79	-0.044720147
98	0xbdaf6b7c	-0.08565423
99	0x3c60b100	0.013714075
100	0x3e93cf0f	0.2886891
101	0x3d8c7e84	0.068600684
102	0xbd90f38a	-0.070777014
103	0x3e045f7c	0.1292705
104	0xbdf6a5ff	-0.1204338
105	0xbd869f6b	-0.06573375
106	0x3cd4b1dc	0.025963716
107	0xbe7d4444	-0.24733073
108	0xbdfa8a6c	-0.12233433
109	0xbdbeed90	-0.09322655
110	0x3da4c7d1	0.080459245
111	0x3e35316d	0.17694636
112	0x3e9c3b70	0.30514097
113	0xbc08e209	-0.008354672
114	0x3dc1a801	0.09455872
115	0x3e8f6122	0.28003794
116	0xbd745e9f	-0.05966055
117	0xbd982b05	-0.0743008
118	0xbd511347	-0.051043775
119	0xbca39dac	-0.019972645
120	0x3ce12edb	0.027488163
121	0x3ec6b515	0.3881003
122	0x3ea662d1	0.32497266
123	0x3eca776d	0.3954424
124	0x3d915db1	0.07097948
125	0xbd956a69	-0.07295687
126	0x3e1390a4	0.14410645
127	0xbc9a1ff3	-0.018814063

layers.4.weight f4 [4, 128]
0	0xbe85e798	-0.26153255
1	0x3e905c32	0.2819534
2	0xbd7cb20d	-0.06169324
3	0xbed8ba0a	-0.42329437
4	0xbeda8b91	-0.42684606
5	0x3def2e14	0.116787106
6	0xbf3f64ff	-0.7476348
7	0x3e0b3221	0.13593341
8	0xbf0dd644	-0.5540507
9	0xbea46e34	-0.32115328
10	0xbeaa8a6f	-0.3330874
11	0xbec226fd	-0.3792037
12	0xbeea5ccd	-0.45773926
13	0xbe0accde	-0.13554713
14	0xbe880e4e	-0.26573414
15	0xbec173cb	-0.37783656
16	0xbefce69b	-0.49394688
17	0xbe87aa0e	-0.2649693
18	0xbec3891a	-0.38190538
19	0xbed6e307	-0.41970083
20	0x3f3cf350	0.73808765
21	0x3f408bea	0.7521349
22	0xbec42cda	-0.3831547
23	0xbe98ed46	-0.29868525
24	0xbdc1ab5f	-0.094565146
25	0x3ec326de	0.3811559
26	0xbea98460	-0.33108807
27	0xbf000833	-0.5001251
28	0xbeb364ec	-0.35037935
29	0xbed5d880	-0.4176674
30	0xbeb996b5	-0.36247793
31	0xbf58a6f6	-0.8462976
32	0xbeb77844	-0.35833943
33	0x3f2ffb92	0.6874324
34	0x3f32295e	0.6959437
35	0x3ffa2cbb	1.9544901
36	0xbe7623ea	-0.24037138
37	0xbef40fb7	-0.4766824
38	0xbef67f1b	-0.4814385
39	0x3f7b984c	0.9827926
40	0xbe6b6877	-0.22989069
41	0xbea630cf	-0.32459113
42	0x3ec402c4	0.3828336
43	0xbf060d89	-0.52364403
44	0xbec2c628	-0.38041806
45	0xbe8aa2ca	-0.27077323
46	0xbd9b33df	-0.07578253
47	0xbea7474c	-0.32671583
48	0xbe8f022d	-0.27931347
49	0xbeac8438	-0.33694625
50	0xbeb61b66	-0.35567778
51	0xbe2b06fa	-0.1670188
52	0x3e74ee85	0.23919113
53	0xbeb0b7bf	-0.34515187
54	0x3d90faa1	0.07079054
55	0xbe785b8f	-0.24253677
56	0x3da8eaa4	0.08247879
57	0xbe91fbbf	-0.2851238
58	0xbec34601	-0.38139346
59	0xbe94c4d2	-0.29056412
60	0xbe476141	-0.19470693
61	0x3ef455a0	0.47721577
62	0x3f15719b	0.58376473
63	0x3f794387	0.97368664
64	0xbf01cdfc	-0.5070493
65	0xbec7eba5	-0.3904697
66	0x3e4c1ed8	0.19933641
67	0x3fb295b8	1.395194
68	0xbeceae2b	-0.40367255
69	0xbf1414fa	-0.5784451
70	0xbeabf1d9	-0.33582953
71	0x3f20661c	0.62655807
72	0xbede06e6	-0.43364638
73	0x3f2a2a4f	0.6647081
74	0xbe901ad5	-0.2814547
75	0xbea19d9e	-0.31565565
76	0xbea0d7c1	-0.31414607
77	0x3d81e9a6	0.06343393
78	0xbe937bee	-0.28805488
79	0x3fefa16d	1.8721138
80	0xbeff500a	-0.49865752
81	0x3fd9b26d	1.7007576
82	0xbec7ec1a	-0.3904732
83	0xbe4900f1	-0.19629265
84	0xbc0406a5	-0.008058225
85	0x3f2bc677	0.6709971
86	0xbe98d35b	-0.2984875
87	0xbea5457b	-0.32279572
88	0x3ef8f043	0.48620805
89	0xbe24e4ef	-0.16102956
90	0xbe99c5fd	-0.30033866
91	0x3f2f9617	0.68588394
92	0xbeb5600a	-0.35424834
93	0xbe98fa85	-0.2987863
94	0x3f88c9e6	1.0686615
95	0xbe99528f	-0.299458
96	0xbe34ce89	-0.17656912
97	0xbeeb3ad3	-0.45943317
98	0xbe9c2dee	-0.30503792
99	0xbeac3f7d	-0.33642188
100	0xbe9275c7	-0.28605482
101	0xbef0e435	-0.47049108
102	0xbe9d0edb	-0.30675396
103	0xbf296558	-0.66170263
104	0xbecaddfe	-0.39622492
105	0xbe7cdf68	-0.24694598
106	0xbee38352	-0.44436127
107	0xbeda0a60	-0.4258604
108	0xbe9e7a81	-0.30952838
109	0xbec21d6e	-0.37913078
110	0x3d5a649a	0.053318597
111	0xbf12867e	-0.5723647
112	0x3f1f8b49	0.6232191
113	0xbe9d8ffb	-0.3077391
114	0x3e61ceac	0.22051495
115	0x3f0078b2	0.50184166
116	0xbe51d093	-0.20489721
117	0xbe552e5c	-0.20818466
118	0xbea5d17a	-0.3238638
119	0xbe8e9eac	-0.27855432
120	0xbec8a955	-0.3919169
121	0x3f15ff00	0.58592224
122	0x3f27137f	0.65264124
123	0x3f0327b3	0.5123245
124	0xbe8abbdd	-0.27096453
125	0xbcf09eb9	-0.02937256
126	0xbdc3491d	-0.095354296
127	0xbeec8bac	-0.4620031
128	0xbec0362a	-0.37541324
129	0x3e0bcbe5	0.13651998
130	0x3db1f271	0.0868882
131	0xbe662d33	-0.2247818
132	0xbeb3bd94	-0.35105574
133	0x3e5a61ad	0.21326323
134	0xbf141938	-0.5785098
135	0xbe0c413f	-0.13696764
136	0xbeb0616f	-0.34449336
137	0xbf01c1e4	-0.5068648
138	0xbeda059a	-0.425824
139	0xbe7b8411	-0.24562098
140	0xbe122b8c	-0.14274424
141	0xbf106ef1	-0.56419283
142	0xbea0a975	-0.31379285
143	0xbe09b285	-0.13447006
144	0xbe983633	-0.2972885
145	0xbeb910da	-0.3614567
146	0xbeade1d7	-0.33961365
147	0xbec78f2f	-0.38976428
148	0x3f57cb0c	0.842942
149	0x3f2a7f86	0.66600835
150	0xbefd7c93	-0.49509105
151	0xbe0c867d	-0.13723178
152	0xbdfa3015	-0.12216202
153	0x3e6ad986	0.22934541
154	0xbde090c7	-0.10965114
155	0xbe8a6d22	-0.27036387
156	0xbeb44ebf	-0.35216329
157	0xbea1d510	-0.31607866
158	0xbea669de	-0.32502645
159	0xbeb43a16	-0.35200566
160	0xbe3784c5	-0.17921741
161	0x3ef0b5e7	0.4701378
162	0x3f0829c8	0.53188753
163	0x3fe08114	1.7539392
164	0xbeefc044	-0.46826375
165	0xbe9e6be8	-0.309417
166	0xbe7ed0e4	-0.24884373
167	0x3f0ba2fc	0.5454557
168	0xbea49a8f	-0.3214917
169	0xbeb34aad	-0.3501791
170	0x3f381dfe	0.71920764
171	0xbe7285f5	-0.23683913
172	0xbec16eb7	-0.3777978
173	0xbec4282f	-0.38311908
174	0xbefd6db0	-0.49497747
175	0xbddd3ea9	-0.10802967
176	0x3e2d3089	0.16913046
177	0xbef2cdcf	-0.47422644
178	0xbe96fb85	-0.2948877
179	0xbf29c723	-0.66319484
180	0x3e545e79	0.20739163
181	0xbe62ad34	-0.22136384
182	0xbc399b3a	-0.011328513
183	0xbe9a76f0	-0.30168867
184	0xbd842dea	-0.0645407
185	0xbeddb1a8	-0.43299603
186	0xbe949c63	-0.29025564
187	0xbe825f8e	-0.25463527
188	0xbebe6cd8	-0.37192416
189	0x3efac0f0	0.48975325
190	0x3f18b9e8	0.5965867
191	0x3f995bd5	1.198115
192	0xbe85b1cd	-0.26112214
193	0xbe241cfc	-0.16026682
194	0xbe7b72f2	-0.24555567
195	0x3f9d7500	1.230133
196	0xbec19915	-0.37812105
197	0xbe69df87	-0.22839175
198	0xbd8fff44	-0.0703111
199	0x3ee8a18e	0.45435756
200	0xbf20b587	-0.6277699
201	0x3f3b4195	0.73146945
202	0xbea21a74	-0.31660807
203	0xbded06db	-0.11573573
204	0xbe5adc20	-0.21373034
205	0xbe97164e	-0.29509205
206	0xbea3c791	-0.31988195
207	0x3fe2f35b	1.7730516
208	0xbef2666c	-0.47343767
209	0x3e976e4f	0.29576346
210	0xbeb6104d	-0.35559312
211	0xbe8ebe55	-0.27879587
212	0x3cb4ba0a	0.022061367
213	0x3f2511da	0.64480364
214	0xbec97416	-0.3934638
215	0xbe95b2e3	-0.29238042
216	0x3f3979fe	0.7245177
217	0xbe5e2715	-0.21694596
218	0xbe8645e5	-0.262252
219	0x3f097a40	0.53702164
220	0xbe44387b	-0.1916217
221	0xbed7987e	-0.4210853
222	0x3fa5332e	1.2906244
223	0xbe9c7020	-0.30554295
224	0xbea2f0ba	-0.31824285
225	0xbe38958e	-0.180258
226	0xbe4e45fa	-0.20143881
227	0xbe855c24	-0.2604686
228	0xbf48b75a	-0.7840477
229	0xbf04e9b7	-0.5191912
230	0xbebcc7ce	-0.3687119
231	0xbeb38911	-0.3506551
232	0xbe93e8fb	-0.28888687
233	0xbee172f0	-0.44033003
234	0xbe7d3b45	-0.24729641
235	0xbe2efeae	-0.1708934
236	0xbe59c0ea	-0.21264997
237	0xbeb461cc	-0.35230863
238	0x3e8c83d1	0.27444318
239	0x3cfde470	0.030992717
240	0x3f47bb28	0.7801995
241	0xbe4ff1d1	-0.2030709
242	0xbe5ddd1c	-0.21666378
243	0x3f112f27	0.56712574
244	0xbe754a7b	-0.23954193
245	0xbe9f420e	-0.31105083
246	0xbeade757	-0.3396556
247	0xbeb57f73	-0.354488
248	0xbe2e6049	-0.17028917
249	0x3f203056	0.62573755
250	0x3f4fc2fa	0.81156886
251	0x3f199c36	0.60003984
252	0xbde0689b	-0.10957452
253	0x3c7f98ca	0.015600393
254	0xbea0be2c	-0.3139509
255	0xbf4b685f	-0.7945613

layers.4.bias f4 [4]
0	0x3d0a2380	0.03372526
1	0x3c9f7151	0.019463213
2	0x3d2e3cd2	0.04253847
3	0x3d5483e9	0.05188361
